node {
  name: "MobilenetV2/Shape"
  op: "Const"
  attr {
    key: "dtype"
    value {
      type: DT_INT32
    }
  }
  attr {
    key: "value"
    value {
      tensor {
        dtype: DT_INT32
        tensor_shape {
          dim {
            size: 4
          }
        }
        tensor_content: "\001\000\000\000\000\001\000\000\000\001\000\000\002\000\000\000"
      }
    }
  }
}
node {
  name: "MobilenetV2/Logits/Conv2d_1c_1x1/biases"
  op: "Const"
  attr {
    key: "dtype"
    value {
      type: DT_FLOAT
    }
  }
  attr {
    key: "value"
    value {
      tensor {
        dtype: DT_FLOAT
        tensor_shape {
          dim {
            size: 2
          }
        }
        tensor_content: "&v\227<,v\227\274"
      }
    }
  }
}
node {
  name: "MobilenetV2/Logits/Conv2d_1c_1x1/weights"
  op: "Const"
  attr {
    key: "dtype"
    value {
      type: DT_FLOAT
    }
  }
  attr {
    key: "value"
    value {
      tensor {
        dtype: DT_FLOAT
        tensor_shape {
          dim {
            size: 1
          }
          dim {
            size: 1
          }
          dim {
            size: 2
          }
          dim {
            size: 2
          }
        }
        tensor_content: "@rF?\206\312v\277\310\360?\277$\204V?"
      }
    }
  }
}
node {
  name: "MobilenetV2/Decoder/concat_4/axis"
  op: "Const"
  attr {
    key: "dtype"
    value {
      type: DT_INT32
    }
  }
  attr {
    key: "value"
    value {
      tensor {
        dtype: DT_INT32
        tensor_shape {
        }
        int_val: 3
      }
    }
  }
}
node {
  name: "MobilenetV2/Decoder/ResizeBilinear_4/size"
  op: "Const"
  attr {
    key: "dtype"
    value {
      type: DT_INT32
    }
  }
  attr {
    key: "value"
    value {
      tensor {
        dtype: DT_INT32
        tensor_shape {
          dim {
            size: 2
          }
        }
        tensor_content: "\000\001\000\000\000\001\000\000"
      }
    }
  }
}
node {
  name: "MobilenetV2/Decoder/concat_3/axis"
  op: "Const"
  attr {
    key: "dtype"
    value {
      type: DT_INT32
    }
  }
  attr {
    key: "value"
    value {
      tensor {
        dtype: DT_INT32
        tensor_shape {
        }
        int_val: 3
      }
    }
  }
}
node {
  name: "MobilenetV2/Decoder/ResizeBilinear_3/size"
  op: "Const"
  attr {
    key: "dtype"
    value {
      type: DT_INT32
    }
  }
  attr {
    key: "value"
    value {
      tensor {
        dtype: DT_INT32
        tensor_shape {
          dim {
            size: 2
          }
        }
        tensor_content: "\200\000\000\000\200\000\000\000"
      }
    }
  }
}
node {
  name: "MobilenetV2/Decoder/concat_2/axis"
  op: "Const"
  attr {
    key: "dtype"
    value {
      type: DT_INT32
    }
  }
  attr {
    key: "value"
    value {
      tensor {
        dtype: DT_INT32
        tensor_shape {
        }
        int_val: 3
      }
    }
  }
}
node {
  name: "MobilenetV2/Decoder/ResizeBilinear_2/size"
  op: "Const"
  attr {
    key: "dtype"
    value {
      type: DT_INT32
    }
  }
  attr {
    key: "value"
    value {
      tensor {
        dtype: DT_INT32
        tensor_shape {
          dim {
            size: 2
          }
        }
        tensor_content: "@\000\000\000@\000\000\000"
      }
    }
  }
}
node {
  name: "MobilenetV2/Decoder/concat_1/axis"
  op: "Const"
  attr {
    key: "dtype"
    value {
      type: DT_INT32
    }
  }
  attr {
    key: "value"
    value {
      tensor {
        dtype: DT_INT32
        tensor_shape {
        }
        int_val: 3
      }
    }
  }
}
node {
  name: "MobilenetV2/Decoder/ResizeBilinear_1/size"
  op: "Const"
  attr {
    key: "dtype"
    value {
      type: DT_INT32
    }
  }
  attr {
    key: "value"
    value {
      tensor {
        dtype: DT_INT32
        tensor_shape {
          dim {
            size: 2
          }
        }
        tensor_content: " \000\000\000 \000\000\000"
      }
    }
  }
}
node {
  name: "MobilenetV2/Decoder/concat/axis"
  op: "Const"
  attr {
    key: "dtype"
    value {
      type: DT_INT32
    }
  }
  attr {
    key: "value"
    value {
      tensor {
        dtype: DT_INT32
        tensor_shape {
        }
        int_val: 3
      }
    }
  }
}
node {
  name: "MobilenetV2/Decoder/ResizeBilinear/size"
  op: "Const"
  attr {
    key: "dtype"
    value {
      type: DT_INT32
    }
  }
  attr {
    key: "value"
    value {
      tensor {
        dtype: DT_INT32
        tensor_shape {
          dim {
            size: 2
          }
        }
        tensor_content: "\020\000\000\000\020\000\000\000"
      }
    }
  }
}
node {
  name: "MobilenetV2/expanded_conv_16/depthwise/BatchNorm/moving_variance"
  op: "Const"
  attr {
    key: "dtype"
    value {
      type: DT_FLOAT
    }
  }
  attr {
    key: "value"
    value {
      tensor {
        dtype: DT_FLOAT
        tensor_shape {
          dim {
            size: 336
          }
        }
        tensor_content: "…"
      }
    }
  }
}
node {
  name: "MobilenetV2/expanded_conv_16/depthwise/BatchNorm/moving_mean"
  op: "Const"
  attr {
    key: "dtype"
    value {
      type: DT_FLOAT
    }
  }
  attr {
    key: "value"
    value {
      tensor {
        dtype: DT_FLOAT
        tensor_shape {
          dim {
            size: 336
          }
        }
        tensor_content: "…"
      }
    }
  }
}
node {
  name: "MobilenetV2/expanded_conv_16/depthwise/BatchNorm/beta"
  op: "Const"
  attr {
    key: "dtype"
    value {
      type: DT_FLOAT
    }
  }
  attr {
    key: "value"
    value {
      tensor {
        dtype: DT_FLOAT
        tensor_shape {
          dim {
            size: 336
          }
        }
        tensor_content: "…"
      }
    }
  }
}
node {
  name: "MobilenetV2/expanded_conv_16/depthwise/BatchNorm/gamma"
  op: "Const"
  attr {
    key: "dtype"
    value {
      type: DT_FLOAT
    }
  }
  attr {
    key: "value"
    value {
      tensor {
        dtype: DT_FLOAT
        tensor_shape {
          dim {
            size: 336
          }
        }
        tensor_content: "…"
      }
    }
  }
}
node {
  name: "MobilenetV2/expanded_conv_16/depthwise/depthwise_weights"
  op: "Const"
  attr {
    key: "dtype"
    value {
      type: DT_FLOAT
    }
  }
  attr {
    key: "value"
    value {
      tensor {
        dtype: DT_FLOAT
        tensor_shape {
          dim {
            size: 3
          }
          dim {
            size: 3
          }
          dim {
            size: 336
          }
          dim {
            size: 1
          }
        }
        tensor_content: "…"
      }
    }
  }
}
node {
  name: "MobilenetV2/expanded_conv_15/depthwise/BatchNorm/moving_variance"
  op: "Const"
  attr {
    key: "dtype"
    value {
      type: DT_FLOAT
    }
  }
  attr {
    key: "value"
    value {
      tensor {
        dtype: DT_FLOAT
        tensor_shape {
          dim {
            size: 336
          }
        }
        tensor_content: "…"
      }
    }
  }
}
node {
  name: "MobilenetV2/expanded_conv_15/depthwise/BatchNorm/moving_mean"
  op: "Const"
  attr {
    key: "dtype"
    value {
      type: DT_FLOAT
    }
  }
  attr {
    key: "value"
    value {
      tensor {
        dtype: DT_FLOAT
        tensor_shape {
          dim {
            size: 336
          }
        }
        tensor_content: "…"
      }
    }
  }
}
node {
  name: "MobilenetV2/expanded_conv_15/depthwise/BatchNorm/beta"
  op: "Const"
  attr {
    key: "dtype"
    value {
      type: DT_FLOAT
    }
  }
  attr {
    key: "value"
    value {
      tensor {
        dtype: DT_FLOAT
        tensor_shape {
          dim {
            size: 336
          }
        }
        tensor_content: "…"
      }
    }
  }
}
node {
  name: "MobilenetV2/expanded_conv_15/depthwise/BatchNorm/gamma"
  op: "Const"
  attr {
    key: "dtype"
    value {
      type: DT_FLOAT
    }
  }
  attr {
    key: "value"
    value {
      tensor {
        dtype: DT_FLOAT
        tensor_shape {
          dim {
            size: 336
          }
        }
        tensor_content: "…"
      }
    }
  }
}
node {
  name: "MobilenetV2/expanded_conv_15/depthwise/depthwise_weights"
  op: "Const"
  attr {
    key: "dtype"
    value {
      type: DT_FLOAT
    }
  }
  attr {
    key: "value"
    value {
      tensor {
        dtype: DT_FLOAT
        tensor_shape {
          dim {
            size: 3
          }
          dim {
            size: 3
          }
          dim {
            size: 336
          }
          dim {
            size: 1
          }
        }
        tensor_content: "…"
      }
    }
  }
}
node {
  name: "MobilenetV2/expanded_conv_14/depthwise/BatchNorm/moving_variance"
  op: "Const"
  attr {
    key: "dtype"
    value {
      type: DT_FLOAT
    }
  }
  attr {
    key: "value"
    value {
      tensor {
        dtype: DT_FLOAT
        tensor_shape {
          dim {
            size: 336
          }
        }
        tensor_content: "…"
      }
    }
  }
}
node {
  name: "MobilenetV2/expanded_conv_14/depthwise/BatchNorm/moving_mean"
  op: "Const"
  attr {
    key: "dtype"
    value {
      type: DT_FLOAT
    }
  }
  attr {
    key: "value"
    value {
      tensor {
        dtype: DT_FLOAT
        tensor_shape {
          dim {
            size: 336
          }
        }
        tensor_content: "…"
      }
    }
  }
}
node {
  name: "MobilenetV2/expanded_conv_14/depthwise/BatchNorm/beta"
  op: "Const"
  attr {
    key: "dtype"
    value {
      type: DT_FLOAT
    }
  }
  attr {
    key: "value"
    value {
      tensor {
        dtype: DT_FLOAT
        tensor_shape {
          dim {
            size: 336
          }
        }
        tensor_content: "…"
      }
    }
  }
}
node {
  name: "MobilenetV2/expanded_conv_14/depthwise/BatchNorm/gamma"
  op: "Const"
  attr {
    key: "dtype"
    value {
      type: DT_FLOAT
    }
  }
  attr {
    key: "value"
    value {
      tensor {
        dtype: DT_FLOAT
        tensor_shape {
          dim {
            size: 336
          }
        }
        tensor_content: "…"
      }
    }
  }
}
node {
  name: "MobilenetV2/expanded_conv_14/depthwise/depthwise_weights"
  op: "Const"
  attr {
    key: "dtype"
    value {
      type: DT_FLOAT
    }
  }
  attr {
    key: "value"
    value {
      tensor {
        dtype: DT_FLOAT
        tensor_shape {
          dim {
            size: 3
          }
          dim {
            size: 3
          }
          dim {
            size: 336
          }
          dim {
            size: 1
          }
        }
        tensor_content: "…"
      }
    }
  }
}
node {
  name: "MobilenetV2/expanded_conv_13/depthwise/BatchNorm/moving_variance"
  op: "Const"
  attr {
    key: "dtype"
    value {
      type: DT_FLOAT
    }
  }
  attr {
    key: "value"
    value {
      tensor {
        dtype: DT_FLOAT
        tensor_shape {
          dim {
            size: 192
          }
        }
        tensor_content: "…"
      }
    }
  }
}
node {
  name: "MobilenetV2/expanded_conv_13/depthwise/BatchNorm/moving_mean"
  op: "Const"
  attr {
    key: "dtype"
    value {
      type: DT_FLOAT
    }
  }
  attr {
    key: "value"
    value {
      tensor {
        dtype: DT_FLOAT
        tensor_shape {
          dim {
            size: 192
          }
        }
        tensor_content: "…"
      }
    }
  }
}
node {
  name: "MobilenetV2/expanded_conv_13/depthwise/BatchNorm/beta"
  op: "Const"
  attr {
    key: "dtype"
    value {
      type: DT_FLOAT
    }
  }
  attr {
    key: "value"
    value {
      tensor {
        dtype: DT_FLOAT
        tensor_shape {
          dim {
            size: 192
          }
        }
        tensor_content: "…"
      }
    }
  }
}
node {
  name: "MobilenetV2/expanded_conv_13/depthwise/BatchNorm/gamma"
  op: "Const"
  attr {
    key: "dtype"
    value {
      type: DT_FLOAT
    }
  }
  attr {
    key: "value"
    value {
      tensor {
        dtype: DT_FLOAT
        tensor_shape {
          dim {
            size: 192
          }
        }
        tensor_content: "…"
      }
    }
  }
}
node {
  name: "MobilenetV2/expanded_conv_13/depthwise/depthwise_weights"
  op: "Const"
  attr {
    key: "dtype"
    value {
      type: DT_FLOAT
    }
  }
  attr {
    key: "value"
    value {
      tensor {
        dtype: DT_FLOAT
        tensor_shape {
          dim {
            size: 3
          }
          dim {
            size: 3
          }
          dim {
            size: 192
          }
          dim {
            size: 1
          }
        }
        tensor_content: "…"
      }
    }
  }
}
node {
  name: "MobilenetV2/expanded_conv_12/depthwise/BatchNorm/moving_variance"
  op: "Const"
  attr {
    key: "dtype"
    value {
      type: DT_FLOAT
    }
  }
  attr {
    key: "value"
    value {
      tensor {
        dtype: DT_FLOAT
        tensor_shape {
          dim {
            size: 192
          }
        }
        tensor_content: "…"
      }
    }
  }
}
node {
  name: "MobilenetV2/expanded_conv_12/depthwise/BatchNorm/moving_mean"
  op: "Const"
  attr {
    key: "dtype"
    value {
      type: DT_FLOAT
    }
  }
  attr {
    key: "value"
    value {
      tensor {
        dtype: DT_FLOAT
        tensor_shape {
          dim {
            size: 192
          }
        }
        tensor_content: "…"
      }
    }
  }
}
node {
  name: "MobilenetV2/expanded_conv_12/depthwise/BatchNorm/beta"
  op: "Const"
  attr {
    key: "dtype"
    value {
      type: DT_FLOAT
    }
  }
  attr {
    key: "value"
    value {
      tensor {
        dtype: DT_FLOAT
        tensor_shape {
          dim {
            size: 192
          }
        }
        tensor_content: "…"
      }
    }
  }
}
node {
  name: "MobilenetV2/expanded_conv_12/depthwise/BatchNorm/gamma"
  op: "Const"
  attr {
    key: "dtype"
    value {
      type: DT_FLOAT
    }
  }
  attr {
    key: "value"
    value {
      tensor {
        dtype: DT_FLOAT
        tensor_shape {
          dim {
            size: 192
          }
        }
        tensor_content: "…"
      }
    }
  }
}
node {
  name: "MobilenetV2/expanded_conv_12/depthwise/depthwise_weights"
  op: "Const"
  attr {
    key: "dtype"
    value {
      type: DT_FLOAT
    }
  }
  attr {
    key: "value"
    value {
      tensor {
        dtype: DT_FLOAT
        tensor_shape {
          dim {
            size: 3
          }
          dim {
            size: 3
          }
          dim {
            size: 192
          }
          dim {
            size: 1
          }
        }
        tensor_content: "…"
      }
    }
  }
}
node {
  name: "MobilenetV2/expanded_conv_11/depthwise/BatchNorm/moving_variance"
  op: "Const"
  attr {
    key: "dtype"
    value {
      type: DT_FLOAT
    }
  }
  attr {
    key: "value"
    value {
      tensor {
        dtype: DT_FLOAT
        tensor_shape {
          dim {
            size: 192
          }
        }
        tensor_content: "…"
      }
    }
  }
}
node {
  name: "MobilenetV2/expanded_conv_11/depthwise/BatchNorm/moving_mean"
  op: "Const"
  attr {
    key: "dtype"
    value {
      type: DT_FLOAT
    }
  }
  attr {
    key: "value"
    value {
      tensor {
        dtype: DT_FLOAT
        tensor_shape {
          dim {
            size: 192
          }
        }
        tensor_content: "…"
      }
    }
  }
}
node {
  name: "MobilenetV2/expanded_conv_11/depthwise/BatchNorm/beta"
  op: "Const"
  attr {
    key: "dtype"
    value {
      type: DT_FLOAT
    }
  }
  attr {
    key: "value"
    value {
      tensor {
        dtype: DT_FLOAT
        tensor_shape {
          dim {
            size: 192
          }
        }
        tensor_content: "…"
      }
    }
  }
}
node {
  name: "MobilenetV2/expanded_conv_11/depthwise/BatchNorm/gamma"
  op: "Const"
  attr {
    key: "dtype"
    value {
      type: DT_FLOAT
    }
  }
  attr {
    key: "value"
    value {
      tensor {
        dtype: DT_FLOAT
        tensor_shape {
          dim {
            size: 192
          }
        }
        tensor_content: "…"
      }
    }
  }
}
node {
  name: "MobilenetV2/expanded_conv_11/depthwise/depthwise_weights"
  op: "Const"
  attr {
    key: "dtype"
    value {
      type: DT_FLOAT
    }
  }
  attr {
    key: "value"
    value {
      tensor {
        dtype: DT_FLOAT
        tensor_shape {
          dim {
            size: 3
          }
          dim {
            size: 3
          }
          dim {
            size: 192
          }
          dim {
            size: 1
          }
        }
        tensor_content: "…"
      }
    }
  }
}
node {
  name: "MobilenetV2/expanded_conv_10/depthwise/BatchNorm/moving_variance"
  op: "Const"
  attr {
    key: "dtype"
    value {
      type: DT_FLOAT
    }
  }
  attr {
    key: "value"
    value {
      tensor {
        dtype: DT_FLOAT
        tensor_shape {
          dim {
            size: 144
          }
        }
        tensor_content: "…"
      }
    }
  }
}
node {
  name: "MobilenetV2/expanded_conv_10/depthwise/BatchNorm/moving_mean"
  op: "Const"
  attr {
    key: "dtype"
    value {
      type: DT_FLOAT
    }
  }
  attr {
    key: "value"
    value {
      tensor {
        dtype: DT_FLOAT
        tensor_shape {
          dim {
            size: 144
          }
        }
        tensor_content: "…"
      }
    }
  }
}
node {
  name: "MobilenetV2/expanded_conv_10/depthwise/BatchNorm/beta"
  op: "Const"
  attr {
    key: "dtype"
    value {
      type: DT_FLOAT
    }
  }
  attr {
    key: "value"
    value {
      tensor {
        dtype: DT_FLOAT
        tensor_shape {
          dim {
            size: 144
          }
        }
        tensor_content: "…"
      }
    }
  }
}
node {
  name: "MobilenetV2/expanded_conv_10/depthwise/BatchNorm/gamma"
  op: "Const"
  attr {
    key: "dtype"
    value {
      type: DT_FLOAT
    }
  }
  attr {
    key: "value"
    value {
      tensor {
        dtype: DT_FLOAT
        tensor_shape {
          dim {
            size: 144
          }
        }
        tensor_content: "…"
      }
    }
  }
}
node {
  name: "MobilenetV2/expanded_conv_10/depthwise/depthwise_weights"
  op: "Const"
  attr {
    key: "dtype"
    value {
      type: DT_FLOAT
    }
  }
  attr {
    key: "value"
    value {
      tensor {
        dtype: DT_FLOAT
        tensor_shape {
          dim {
            size: 3
          }
          dim {
            size: 3
          }
          dim {
            size: 144
          }
          dim {
            size: 1
          }
        }
        tensor_content: "…"
      }
    }
  }
}
node {
  name: "MobilenetV2/expanded_conv_9/depthwise/BatchNorm/moving_variance"
  op: "Const"
  attr {
    key: "dtype"
    value {
      type: DT_FLOAT
    }
  }
  attr {
    key: "value"
    value {
      tensor {
        dtype: DT_FLOAT
        tensor_shape {
          dim {
            size: 144
          }
        }
        tensor_content: "…"
      }
    }
  }
}
node {
  name: "MobilenetV2/expanded_conv_9/depthwise/BatchNorm/moving_mean"
  op: "Const"
  attr {
    key: "dtype"
    value {
      type: DT_FLOAT
    }
  }
  attr {
    key: "value"
    value {
      tensor {
        dtype: DT_FLOAT
        tensor_shape {
          dim {
            size: 144
          }
        }
        tensor_content: "…"
      }
    }
  }
}
node {
  name: "MobilenetV2/expanded_conv_9/depthwise/BatchNorm/beta"
  op: "Const"
  attr {
    key: "dtype"
    value {
      type: DT_FLOAT
    }
  }
  attr {
    key: "value"
    value {
      tensor {
        dtype: DT_FLOAT
        tensor_shape {
          dim {
            size: 144
          }
        }
        tensor_content: "…"
      }
    }
  }
}
node {
  name: "MobilenetV2/expanded_conv_9/depthwise/BatchNorm/gamma"
  op: "Const"
  attr {
    key: "dtype"
    value {
      type: DT_FLOAT
    }
  }
  attr {
    key: "value"
    value {
      tensor {
        dtype: DT_FLOAT
        tensor_shape {
          dim {
            size: 144
          }
        }
        tensor_content: "…"
      }
    }
  }
}
node {
  name: "MobilenetV2/expanded_conv_9/depthwise/depthwise_weights"
  op: "Const"
  attr {
    key: "dtype"
    value {
      type: DT_FLOAT
    }
  }
  attr {
    key: "value"
    value {
      tensor {
        dtype: DT_FLOAT
        tensor_shape {
          dim {
            size: 3
          }
          dim {
            size: 3
          }
          dim {
            size: 144
          }
          dim {
            size: 1
          }
        }
        tensor_content: "…"
      }
    }
  }
}
node {
  name: "MobilenetV2/expanded_conv_8/depthwise/BatchNorm/moving_variance"
  op: "Const"
  attr {
    key: "dtype"
    value {
      type: DT_FLOAT
    }
  }
  attr {
    key: "value"
    value {
      tensor {
        dtype: DT_FLOAT
        tensor_shape {
          dim {
            size: 144
          }
        }
        tensor_content: "…"
      }
    }
  }
}
node {
  name: "MobilenetV2/expanded_conv_8/depthwise/BatchNorm/moving_mean"
  op: "Const"
  attr {
    key: "dtype"
    value {
      type: DT_FLOAT
    }
  }
  attr {
    key: "value"
    value {
      tensor {
        dtype: DT_FLOAT
        tensor_shape {
          dim {
            size: 144
          }
        }
        tensor_content: "…"
      }
    }
  }
}
node {
  name: "MobilenetV2/expanded_conv_8/depthwise/BatchNorm/beta"
  op: "Const"
  attr {
    key: "dtype"
    value {
      type: DT_FLOAT
    }
  }
  attr {
    key: "value"
    value {
      tensor {
        dtype: DT_FLOAT
        tensor_shape {
          dim {
            size: 144
          }
        }
        tensor_content: "…"
      }
    }
  }
}
node {
  name: "MobilenetV2/expanded_conv_8/depthwise/BatchNorm/gamma"
  op: "Const"
  attr {
    key: "dtype"
    value {
      type: DT_FLOAT
    }
  }
  attr {
    key: "value"
    value {
      tensor {
        dtype: DT_FLOAT
        tensor_shape {
          dim {
            size: 144
          }
        }
        tensor_content: "…"
      }
    }
  }
}
node {
  name: "MobilenetV2/expanded_conv_8/depthwise/depthwise_weights"
  op: "Const"
  attr {
    key: "dtype"
    value {
      type: DT_FLOAT
    }
  }
  attr {
    key: "value"
    value {
      tensor {
        dtype: DT_FLOAT
        tensor_shape {
          dim {
            size: 3
          }
          dim {
            size: 3
          }
          dim {
            size: 144
          }
          dim {
            size: 1
          }
        }
        tensor_content: "…"
      }
    }
  }
}
node {
  name: "MobilenetV2/expanded_conv_7/depthwise/BatchNorm/moving_variance"
  op: "Const"
  attr {
    key: "dtype"
    value {
      type: DT_FLOAT
    }
  }
  attr {
    key: "value"
    value {
      tensor {
        dtype: DT_FLOAT
        tensor_shape {
          dim {
            size: 144
          }
        }
        tensor_content: "…"
      }
    }
  }
}
node {
  name: "MobilenetV2/expanded_conv_7/depthwise/BatchNorm/moving_mean"
  op: "Const"
  attr {
    key: "dtype"
    value {
      type: DT_FLOAT
    }
  }
  attr {
    key: "value"
    value {
      tensor {
        dtype: DT_FLOAT
        tensor_shape {
          dim {
            size: 144
          }
        }
        tensor_content: "…"
      }
    }
  }
}
node {
  name: "MobilenetV2/expanded_conv_7/depthwise/BatchNorm/beta"
  op: "Const"
  attr {
    key: "dtype"
    value {
      type: DT_FLOAT
    }
  }
  attr {
    key: "value"
    value {
      tensor {
        dtype: DT_FLOAT
        tensor_shape {
          dim {
            size: 144
          }
        }
        tensor_content: "…"
      }
    }
  }
}
node {
  name: "MobilenetV2/expanded_conv_7/depthwise/BatchNorm/gamma"
  op: "Const"
  attr {
    key: "dtype"
    value {
      type: DT_FLOAT
    }
  }
  attr {
    key: "value"
    value {
      tensor {
        dtype: DT_FLOAT
        tensor_shape {
          dim {
            size: 144
          }
        }
        tensor_content: "…"
      }
    }
  }
}
node {
  name: "MobilenetV2/expanded_conv_7/depthwise/depthwise_weights"
  op: "Const"
  attr {
    key: "dtype"
    value {
      type: DT_FLOAT
    }
  }
  attr {
    key: "value"
    value {
      tensor {
        dtype: DT_FLOAT
        tensor_shape {
          dim {
            size: 3
          }
          dim {
            size: 3
          }
          dim {
            size: 144
          }
          dim {
            size: 1
          }
        }
        tensor_content: "…"
      }
    }
  }
}
node {
  name: "MobilenetV2/expanded_conv_6/depthwise/BatchNorm/moving_variance"
  op: "Const"
  attr {
    key: "dtype"
    value {
      type: DT_FLOAT
    }
  }
  attr {
    key: "value"
    value {
      tensor {
        dtype: DT_FLOAT
        tensor_shape {
          dim {
            size: 96
          }
        }
        tensor_content: "…"
      }
    }
  }
}
node {
  name: "MobilenetV2/expanded_conv_6/depthwise/BatchNorm/moving_mean"
  op: "Const"
  attr {
    key: "dtype"
    value {
      type: DT_FLOAT
    }
  }
  attr {
    key: "value"
    value {
      tensor {
        dtype: DT_FLOAT
        tensor_shape {
          dim {
            size: 96
          }
        }
        tensor_content: "…"
      }
    }
  }
}
node {
  name: "MobilenetV2/expanded_conv_6/depthwise/BatchNorm/beta"
  op: "Const"
  attr {
    key: "dtype"
    value {
      type: DT_FLOAT
    }
  }
  attr {
    key: "value"
    value {
      tensor {
        dtype: DT_FLOAT
        tensor_shape {
          dim {
            size: 96
          }
        }
        tensor_content: "…"
      }
    }
  }
}
node {
  name: "MobilenetV2/expanded_conv_6/depthwise/BatchNorm/gamma"
  op: "Const"
  attr {
    key: "dtype"
    value {
      type: DT_FLOAT
    }
  }
  attr {
    key: "value"
    value {
      tensor {
        dtype: DT_FLOAT
        tensor_shape {
          dim {
            size: 96
          }
        }
        tensor_content: "…"
      }
    }
  }
}
node {
  name: "MobilenetV2/expanded_conv_6/depthwise/depthwise_weights"
  op: "Const"
  attr {
    key: "dtype"
    value {
      type: DT_FLOAT
    }
  }
  attr {
    key: "value"
    value {
      tensor {
        dtype: DT_FLOAT
        tensor_shape {
          dim {
            size: 3
          }
          dim {
            size: 3
          }
          dim {
            size: 96
          }
          dim {
            size: 1
          }
        }
        tensor_content: "…"
      }
    }
  }
}
node {
  name: "MobilenetV2/expanded_conv_5/depthwise/BatchNorm/moving_variance"
  op: "Const"
  attr {
    key: "dtype"
    value {
      type: DT_FLOAT
    }
  }
  attr {
    key: "value"
    value {
      tensor {
        dtype: DT_FLOAT
        tensor_shape {
          dim {
            size: 96
          }
        }
        tensor_content: "…"
      }
    }
  }
}
node {
  name: "MobilenetV2/expanded_conv_5/depthwise/BatchNorm/moving_mean"
  op: "Const"
  attr {
    key: "dtype"
    value {
      type: DT_FLOAT
    }
  }
  attr {
    key: "value"
    value {
      tensor {
        dtype: DT_FLOAT
        tensor_shape {
          dim {
            size: 96
          }
        }
        tensor_content: "…"
      }
    }
  }
}
node {
  name: "MobilenetV2/expanded_conv_5/depthwise/BatchNorm/beta"
  op: "Const"
  attr {
    key: "dtype"
    value {
      type: DT_FLOAT
    }
  }
  attr {
    key: "value"
    value {
      tensor {
        dtype: DT_FLOAT
        tensor_shape {
          dim {
            size: 96
          }
        }
        tensor_content: "…"
      }
    }
  }
}
node {
  name: "MobilenetV2/expanded_conv_5/depthwise/BatchNorm/gamma"
  op: "Const"
  attr {
    key: "dtype"
    value {
      type: DT_FLOAT
    }
  }
  attr {
    key: "value"
    value {
      tensor {
        dtype: DT_FLOAT
        tensor_shape {
          dim {
            size: 96
          }
        }
        tensor_content: "…"
      }
    }
  }
}
node {
  name: "MobilenetV2/expanded_conv_5/depthwise/depthwise_weights"
  op: "Const"
  attr {
    key: "dtype"
    value {
      type: DT_FLOAT
    }
  }
  attr {
    key: "value"
    value {
      tensor {
        dtype: DT_FLOAT
        tensor_shape {
          dim {
            size: 3
          }
          dim {
            size: 3
          }
          dim {
            size: 96
          }
          dim {
            size: 1
          }
        }
        tensor_content: "…"
      }
    }
  }
}
node {
  name: "MobilenetV2/expanded_conv_4/depthwise/BatchNorm/moving_variance"
  op: "Const"
  attr {
    key: "dtype"
    value {
      type: DT_FLOAT
    }
  }
  attr {
    key: "value"
    value {
      tensor {
        dtype: DT_FLOAT
        tensor_shape {
          dim {
            size: 96
          }
        }
        tensor_content: "…"
      }
    }
  }
}
node {
  name: "MobilenetV2/expanded_conv_4/depthwise/BatchNorm/moving_mean"
  op: "Const"
  attr {
    key: "dtype"
    value {
      type: DT_FLOAT
    }
  }
  attr {
    key: "value"
    value {
      tensor {
        dtype: DT_FLOAT
        tensor_shape {
          dim {
            size: 96
          }
        }
        tensor_content: "…"
      }
    }
  }
}
node {
  name: "MobilenetV2/expanded_conv_4/depthwise/BatchNorm/beta"
  op: "Const"
  attr {
    key: "dtype"
    value {
      type: DT_FLOAT
    }
  }
  attr {
    key: "value"
    value {
      tensor {
        dtype: DT_FLOAT
        tensor_shape {
          dim {
            size: 96
          }
        }
        tensor_content: "…"
      }
    }
  }
}
node {
  name: "MobilenetV2/expanded_conv_4/depthwise/BatchNorm/gamma"
  op: "Const"
  attr {
    key: "dtype"
    value {
      type: DT_FLOAT
    }
  }
  attr {
    key: "value"
    value {
      tensor {
        dtype: DT_FLOAT
        tensor_shape {
          dim {
            size: 96
          }
        }
        tensor_content: "…"
      }
    }
  }
}
node {
  name: "MobilenetV2/expanded_conv_4/depthwise/depthwise_weights"
  op: "Const"
  attr {
    key: "dtype"
    value {
      type: DT_FLOAT
    }
  }
  attr {
    key: "value"
    value {
      tensor {
        dtype: DT_FLOAT
        tensor_shape {
          dim {
            size: 3
          }
          dim {
            size: 3
          }
          dim {
            size: 96
          }
          dim {
            size: 1
          }
        }
        tensor_content: "…"
      }
    }
  }
}
node {
  name: "MobilenetV2/expanded_conv_3/depthwise/BatchNorm/moving_variance"
  op: "Const"
  attr {
    key: "dtype"
    value {
      type: DT_FLOAT
    }
  }
  attr {
    key: "value"
    value {
      tensor {
        dtype: DT_FLOAT
        tensor_shape {
          dim {
            size: 48
          }
        }
        tensor_content: "…"
      }
    }
  }
}
node {
  name: "MobilenetV2/expanded_conv_3/depthwise/BatchNorm/moving_mean"
  op: "Const"
  attr {
    key: "dtype"
    value {
      type: DT_FLOAT
    }
  }
  attr {
    key: "value"
    value {
      tensor {
        dtype: DT_FLOAT
        tensor_shape {
          dim {
            size: 48
          }
        }
        tensor_content: "…"
      }
    }
  }
}
node {
  name: "MobilenetV2/expanded_conv_3/depthwise/BatchNorm/beta"
  op: "Const"
  attr {
    key: "dtype"
    value {
      type: DT_FLOAT
    }
  }
  attr {
    key: "value"
    value {
      tensor {
        dtype: DT_FLOAT
        tensor_shape {
          dim {
            size: 48
          }
        }
        tensor_content: "…"
      }
    }
  }
}
node {
  name: "MobilenetV2/expanded_conv_3/depthwise/BatchNorm/gamma"
  op: "Const"
  attr {
    key: "dtype"
    value {
      type: DT_FLOAT
    }
  }
  attr {
    key: "value"
    value {
      tensor {
        dtype: DT_FLOAT
        tensor_shape {
          dim {
            size: 48
          }
        }
        tensor_content: "…"
      }
    }
  }
}
node {
  name: "MobilenetV2/expanded_conv_3/depthwise/depthwise_weights"
  op: "Const"
  attr {
    key: "dtype"
    value {
      type: DT_FLOAT
    }
  }
  attr {
    key: "value"
    value {
      tensor {
        dtype: DT_FLOAT
        tensor_shape {
          dim {
            size: 3
          }
          dim {
            size: 3
          }
          dim {
            size: 48
          }
          dim {
            size: 1
          }
        }
        tensor_content: "…"
      }
    }
  }
}
node {
  name: "MobilenetV2/expanded_conv_2/depthwise/BatchNorm/moving_variance"
  op: "Const"
  attr {
    key: "dtype"
    value {
      type: DT_FLOAT
    }
  }
  attr {
    key: "value"
    value {
      tensor {
        dtype: DT_FLOAT
        tensor_shape {
          dim {
            size: 48
          }
        }
        tensor_content: "…"
      }
    }
  }
}
node {
  name: "MobilenetV2/expanded_conv_2/depthwise/BatchNorm/moving_mean"
  op: "Const"
  attr {
    key: "dtype"
    value {
      type: DT_FLOAT
    }
  }
  attr {
    key: "value"
    value {
      tensor {
        dtype: DT_FLOAT
        tensor_shape {
          dim {
            size: 48
          }
        }
        tensor_content: "…"
      }
    }
  }
}
node {
  name: "MobilenetV2/expanded_conv_2/depthwise/BatchNorm/beta"
  op: "Const"
  attr {
    key: "dtype"
    value {
      type: DT_FLOAT
    }
  }
  attr {
    key: "value"
    value {
      tensor {
        dtype: DT_FLOAT
        tensor_shape {
          dim {
            size: 48
          }
        }
        tensor_content: "…"
      }
    }
  }
}
node {
  name: "MobilenetV2/expanded_conv_2/depthwise/BatchNorm/gamma"
  op: "Const"
  attr {
    key: "dtype"
    value {
      type: DT_FLOAT
    }
  }
  attr {
    key: "value"
    value {
      tensor {
        dtype: DT_FLOAT
        tensor_shape {
          dim {
            size: 48
          }
        }
        tensor_content: "…"
      }
    }
  }
}
node {
  name: "MobilenetV2/expanded_conv_2/depthwise/depthwise_weights"
  op: "Const"
  attr {
    key: "dtype"
    value {
      type: DT_FLOAT
    }
  }
  attr {
    key: "value"
    value {
      tensor {
        dtype: DT_FLOAT
        tensor_shape {
          dim {
            size: 3
          }
          dim {
            size: 3
          }
          dim {
            size: 48
          }
          dim {
            size: 1
          }
        }
        tensor_content: "…"
      }
    }
  }
}
node {
  name: "MobilenetV2/expanded_conv_1/depthwise/BatchNorm/moving_variance"
  op: "Const"
  attr {
    key: "dtype"
    value {
      type: DT_FLOAT
    }
  }
  attr {
    key: "value"
    value {
      tensor {
        dtype: DT_FLOAT
        tensor_shape {
          dim {
            size: 48
          }
        }
        tensor_content: "…"
      }
    }
  }
}
node {
  name: "MobilenetV2/expanded_conv_1/depthwise/BatchNorm/moving_mean"
  op: "Const"
  attr {
    key: "dtype"
    value {
      type: DT_FLOAT
    }
  }
  attr {
    key: "value"
    value {
      tensor {
        dtype: DT_FLOAT
        tensor_shape {
          dim {
            size: 48
          }
        }
        tensor_content: "…"
      }
    }
  }
}
node {
  name: "MobilenetV2/expanded_conv_1/depthwise/BatchNorm/beta"
  op: "Const"
  attr {
    key: "dtype"
    value {
      type: DT_FLOAT
    }
  }
  attr {
    key: "value"
    value {
      tensor {
        dtype: DT_FLOAT
        tensor_shape {
          dim {
            size: 48
          }
        }
        tensor_content: "…"
      }
    }
  }
}
node {
  name: "MobilenetV2/expanded_conv_1/depthwise/BatchNorm/gamma"
  op: "Const"
  attr {
    key: "dtype"
    value {
      type: DT_FLOAT
    }
  }
  attr {
    key: "value"
    value {
      tensor {
        dtype: DT_FLOAT
        tensor_shape {
          dim {
            size: 48
          }
        }
        tensor_content: "…"
      }
    }
  }
}
node {
  name: "MobilenetV2/expanded_conv_1/depthwise/depthwise_weights"
  op: "Const"
  attr {
    key: "dtype"
    value {
      type: DT_FLOAT
    }
  }
  attr {
    key: "value"
    value {
      tensor {
        dtype: DT_FLOAT
        tensor_shape {
          dim {
            size: 3
          }
          dim {
            size: 3
          }
          dim {
            size: 48
          }
          dim {
            size: 1
          }
        }
        tensor_content: "…"
      }
    }
  }
}
node {
  name: "MobilenetV2/expanded_conv/depthwise/BatchNorm/moving_variance"
  op: "Const"
  attr {
    key: "dtype"
    value {
      type: DT_FLOAT
    }
  }
  attr {
    key: "value"
    value {
      tensor {
        dtype: DT_FLOAT
        tensor_shape {
          dim {
            size: 16
          }
        }
        tensor_content: "…"
      }
    }
  }
}
node {
  name: "MobilenetV2/expanded_conv/depthwise/BatchNorm/moving_mean"
  op: "Const"
  attr {
    key: "dtype"
    value {
      type: DT_FLOAT
    }
  }
  attr {
    key: "value"
    value {
      tensor {
        dtype: DT_FLOAT
        tensor_shape {
          dim {
            size: 16
          }
        }
        tensor_content: "…"
      }
    }
  }
}
node {
  name: "MobilenetV2/expanded_conv/depthwise/BatchNorm/beta"
  op: "Const"
  attr {
    key: "dtype"
    value {
      type: DT_FLOAT
    }
  }
  attr {
    key: "value"
    value {
      tensor {
        dtype: DT_FLOAT
        tensor_shape {
          dim {
            size: 16
          }
        }
        tensor_content: "…"
      }
    }
  }
}
node {
  name: "MobilenetV2/expanded_conv/depthwise/BatchNorm/gamma"
  op: "Const"
  attr {
    key: "dtype"
    value {
      type: DT_FLOAT
    }
  }
  attr {
    key: "value"
    value {
      tensor {
        dtype: DT_FLOAT
        tensor_shape {
          dim {
            size: 16
          }
        }
        tensor_content: "…"
      }
    }
  }
}
node {
  name: "MobilenetV2/expanded_conv/depthwise/depthwise_weights"
  op: "Const"
  attr {
    key: "dtype"
    value {
      type: DT_FLOAT
    }
  }
  attr {
    key: "value"
    value {
      tensor {
        dtype: DT_FLOAT
        tensor_shape {
          dim {
            size: 3
          }
          dim {
            size: 3
          }
          dim {
            size: 16
          }
          dim {
            size: 1
          }
        }
        tensor_content: "…"
      }
    }
  }
}
node {
  name: "MobilenetV2/Decoder/skip_5_512x512_bridge/weights"
  op: "Const"
  attr {
    key: "dtype"
    value {
      type: DT_FLOAT
    }
  }
  attr {
    key: "value"
    value {
      tensor {
        dtype: DT_FLOAT
        tensor_shape {
          dim {
            size: 3
          }
          dim {
            size: 3
          }
          dim {
            size: 3
          }
          dim {
            size: 4
          }
        }
        tensor_content: "…"
      }
    }
  }
}
node {
  name: "image"
  op: "Placeholder"
  attr {
    key: "dtype"
    value {
      type: DT_FLOAT
    }
  }
  attr {
    key: "shape"
    value {
      shape {
        dim {
          size: 1
        }
        dim {
          size: 256
        }
        dim {
          size: 256
        }
        dim {
          size: 3
        }
      }
    }
  }
}
node {
  name: "MobilenetV2/Decoder/skip_5_512x512_bridge/Conv2D"
  op: "Conv2D"
  input: "image:0"
  input: "MobilenetV2/Decoder/skip_5_512x512_bridge/weights"
  attr {
    key: "T"
    value {
      type: DT_FLOAT
    }
  }
  attr {
    key: "data_format"
    value {
      s: "NHWC"
    }
  }
  attr {
    key: "dilations"
    value {
      list {
        i: 1
        i: 1
        i: 1
        i: 1
      }
    }
  }
  attr {
    key: "padding"
    value {
      s: "SAME"
    }
  }
  attr {
    key: "strides"
    value {
      list {
        i: 1
        i: 1
        i: 1
        i: 1
      }
    }
  }
  attr {
    key: "use_cudnn_on_gpu"
    value {
      b: true
    }
  }
}
node {
  name: "MobilenetV2/Decoder/skip_5_512x512_bridge/Conv2D_bn_offset"
  op: "Const"
  attr {
    key: "dtype"
    value {
      type: DT_FLOAT
    }
  }
  attr {
    key: "value"
    value {
      tensor {
        dtype: DT_FLOAT
        tensor_shape {
          dim {
            size: 4
          }
        }
        tensor_content: "\271\330\234\277h\362\322\277\356\\\362\277^\365\266\277"
      }
    }
  }
}
node {
  name: "MobilenetV2/Decoder/skip_5_512x512_bridge/BatchNorm/FusedBatchNorm"
  op: "BiasAdd"
  input: "MobilenetV2/Decoder/skip_5_512x512_bridge/Conv2D"
  input: "MobilenetV2/Decoder/skip_5_512x512_bridge/Conv2D_bn_offset"
  attr {
    key: "T"
    value {
      type: DT_FLOAT
    }
  }
  attr {
    key: "data_format"
    value {
      s: "NHWC"
    }
  }
}
node {
  name: "MobilenetV2/Conv/weights"
  op: "Const"
  attr {
    key: "dtype"
    value {
      type: DT_FLOAT
    }
  }
  attr {
    key: "value"
    value {
      tensor {
        dtype: DT_FLOAT
        tensor_shape {
          dim {
            size: 3
          }
          dim {
            size: 3
          }
          dim {
            size: 3
          }
          dim {
            size: 16
          }
        }
        tensor_content: "…"
      }
    }
  }
}
node {
  name: "MobilenetV2/Conv/Conv2D"
  op: "Conv2D"
  input: "image:0"
  input: "MobilenetV2/Conv/weights"
  attr {
    key: "T"
    value {
      type: DT_FLOAT
    }
  }
  attr {
    key: "data_format"
    value {
      s: "NHWC"
    }
  }
  attr {
    key: "dilations"
    value {
      list {
        i: 1
        i: 1
        i: 1
        i: 1
      }
    }
  }
  attr {
    key: "padding"
    value {
      s: "SAME"
    }
  }
  attr {
    key: "strides"
    value {
      list {
        i: 1
        i: 2
        i: 2
        i: 1
      }
    }
  }
  attr {
    key: "use_cudnn_on_gpu"
    value {
      b: true
    }
  }
}
node {
  name: "MobilenetV2/Conv/Conv2D_bn_offset"
  op: "Const"
  attr {
    key: "dtype"
    value {
      type: DT_FLOAT
    }
  }
  attr {
    key: "value"
    value {
      tensor {
        dtype: DT_FLOAT
        tensor_shape {
          dim {
            size: 16
          }
        }
        tensor_content: "…"
      }
    }
  }
}
node {
  name: "MobilenetV2/Conv/BatchNorm/FusedBatchNorm"
  op: "BiasAdd"
  input: "MobilenetV2/Conv/Conv2D"
  input: "MobilenetV2/Conv/Conv2D_bn_offset"
  attr {
    key: "T"
    value {
      type: DT_FLOAT
    }
  }
  attr {
    key: "data_format"
    value {
      s: "NHWC"
    }
  }
}
node {
  name: "MobilenetV2/Conv/Relu6"
  op: "Relu6"
  input: "MobilenetV2/Conv/BatchNorm/FusedBatchNorm"
  attr {
    key: "T"
    value {
      type: DT_FLOAT
    }
  }
}
node {
  name: "MobilenetV2/expanded_conv/depthwise/depthwise"
  op: "DepthwiseConv2dNative"
  input: "MobilenetV2/Conv/Relu6"
  input: "MobilenetV2/expanded_conv/depthwise/depthwise_weights"
  attr {
    key: "T"
    value {
      type: DT_FLOAT
    }
  }
  attr {
    key: "data_format"
    value {
      s: "NHWC"
    }
  }
  attr {
    key: "dilations"
    value {
      list {
        i: 1
        i: 1
        i: 1
        i: 1
      }
    }
  }
  attr {
    key: "padding"
    value {
      s: "SAME"
    }
  }
  attr {
    key: "strides"
    value {
      list {
        i: 1
        i: 1
        i: 1
        i: 1
      }
    }
  }
}
node {
  name: "MobilenetV2/expanded_conv/depthwise/BatchNorm/FusedBatchNorm"
  op: "FusedBatchNorm"
  input: "MobilenetV2/expanded_conv/depthwise/depthwise"
  input: "MobilenetV2/expanded_conv/depthwise/BatchNorm/gamma"
  input: "MobilenetV2/expanded_conv/depthwise/BatchNorm/beta"
  input: "MobilenetV2/expanded_conv/depthwise/BatchNorm/moving_mean"
  input: "MobilenetV2/expanded_conv/depthwise/BatchNorm/moving_variance"
  attr {
    key: "T"
    value {
      type: DT_FLOAT
    }
  }
  attr {
    key: "data_format"
    value {
      s: "NHWC"
    }
  }
  attr {
    key: "epsilon"
    value {
      f: 0.0010000000475
    }
  }
  attr {
    key: "is_training"
    value {
      b: false
    }
  }
}
node {
  name: "MobilenetV2/expanded_conv/project/weights"
  op: "Const"
  attr {
    key: "dtype"
    value {
      type: DT_FLOAT
    }
  }
  attr {
    key: "value"
    value {
      tensor {
        dtype: DT_FLOAT
        tensor_shape {
          dim {
            size: 1
          }
          dim {
            size: 1
          }
          dim {
            size: 16
          }
          dim {
            size: 8
          }
        }
        tensor_content: "…"
      }
    }
  }
}
node {
  name: "MobilenetV2/expanded_conv/depthwise/Relu6"
  op: "Relu6"
  input: "MobilenetV2/expanded_conv/depthwise/BatchNorm/FusedBatchNorm"
  attr {
    key: "T"
    value {
      type: DT_FLOAT
    }
  }
}
node {
  name: "MobilenetV2/expanded_conv/project/Conv2D"
  op: "Conv2D"
  input: "MobilenetV2/expanded_conv/depthwise/Relu6"
  input: "MobilenetV2/expanded_conv/project/weights"
  attr {
    key: "T"
    value {
      type: DT_FLOAT
    }
  }
  attr {
    key: "data_format"
    value {
      s: "NHWC"
    }
  }
  attr {
    key: "dilations"
    value {
      list {
        i: 1
        i: 1
        i: 1
        i: 1
      }
    }
  }
  attr {
    key: "padding"
    value {
      s: "SAME"
    }
  }
  attr {
    key: "strides"
    value {
      list {
        i: 1
        i: 1
        i: 1
        i: 1
      }
    }
  }
  attr {
    key: "use_cudnn_on_gpu"
    value {
      b: true
    }
  }
}
node {
  name: "MobilenetV2/expanded_conv/project/Conv2D_bn_offset"
  op: "Const"
  attr {
    key: "dtype"
    value {
      type: DT_FLOAT
    }
  }
  attr {
    key: "value"
    value {
      tensor {
        dtype: DT_FLOAT
        tensor_shape {
          dim {
            size: 8
          }
        }
        tensor_content: "TT\312A\237[lA\271\t\374\301\214q2@A\306\037B\033\217>\301xF\267\300\343\"\217A"
      }
    }
  }
}
node {
  name: "MobilenetV2/Decoder/skip_4_256x256_bridge/weights"
  op: "Const"
  attr {
    key: "dtype"
    value {
      type: DT_FLOAT
    }
  }
  attr {
    key: "value"
    value {
      tensor {
        dtype: DT_FLOAT
        tensor_shape {
          dim {
            size: 3
          }
          dim {
            size: 3
          }
          dim {
            size: 8
          }
          dim {
            size: 8
          }
        }
        tensor_content: "…"
      }
    }
  }
}
node {
  name: "MobilenetV2/expanded_conv/project/BatchNorm/FusedBatchNorm"
  op: "BiasAdd"
  input: "MobilenetV2/expanded_conv/project/Conv2D"
  input: "MobilenetV2/expanded_conv/project/Conv2D_bn_offset"
  attr {
    key: "T"
    value {
      type: DT_FLOAT
    }
  }
  attr {
    key: "data_format"
    value {
      s: "NHWC"
    }
  }
}
node {
  name: "MobilenetV2/Decoder/skip_4_256x256_bridge/Conv2D"
  op: "Conv2D"
  input: "MobilenetV2/expanded_conv/project/BatchNorm/FusedBatchNorm"
  input: "MobilenetV2/Decoder/skip_4_256x256_bridge/weights"
  attr {
    key: "T"
    value {
      type: DT_FLOAT
    }
  }
  attr {
    key: "data_format"
    value {
      s: "NHWC"
    }
  }
  attr {
    key: "dilations"
    value {
      list {
        i: 1
        i: 1
        i: 1
        i: 1
      }
    }
  }
  attr {
    key: "padding"
    value {
      s: "SAME"
    }
  }
  attr {
    key: "strides"
    value {
      list {
        i: 1
        i: 1
        i: 1
        i: 1
      }
    }
  }
  attr {
    key: "use_cudnn_on_gpu"
    value {
      b: true
    }
  }
}
node {
  name: "MobilenetV2/Decoder/skip_4_256x256_bridge/Conv2D_bn_offset"
  op: "Const"
  attr {
    key: "dtype"
    value {
      type: DT_FLOAT
    }
  }
  attr {
    key: "value"
    value {
      tensor {
        dtype: DT_FLOAT
        tensor_shape {
          dim {
            size: 8
          }
        }
        tensor_content: " \206\320;\026{5\275\\\325\316\273\204C%\275\251d?=:\246A<\262\021G\275\213\005\327;"
      }
    }
  }
}
node {
  name: "MobilenetV2/Decoder/skip_4_256x256_bridge/BatchNorm/FusedBatchNorm"
  op: "BiasAdd"
  input: "MobilenetV2/Decoder/skip_4_256x256_bridge/Conv2D"
  input: "MobilenetV2/Decoder/skip_4_256x256_bridge/Conv2D_bn_offset"
  attr {
    key: "T"
    value {
      type: DT_FLOAT
    }
  }
  attr {
    key: "data_format"
    value {
      s: "NHWC"
    }
  }
}
node {
  name: "MobilenetV2/expanded_conv_1/expand/weights"
  op: "Const"
  attr {
    key: "dtype"
    value {
      type: DT_FLOAT
    }
  }
  attr {
    key: "value"
    value {
      tensor {
        dtype: DT_FLOAT
        tensor_shape {
          dim {
            size: 1
          }
          dim {
            size: 1
          }
          dim {
            size: 8
          }
          dim {
            size: 48
          }
        }
        tensor_content: "…"
      }
    }
  }
}
node {
  name: "MobilenetV2/expanded_conv_1/expand/Conv2D"
  op: "Conv2D"
  input: "MobilenetV2/expanded_conv/project/BatchNorm/FusedBatchNorm"
  input: "MobilenetV2/expanded_conv_1/expand/weights"
  attr {
    key: "T"
    value {
      type: DT_FLOAT
    }
  }
  attr {
    key: "data_format"
    value {
      s: "NHWC"
    }
  }
  attr {
    key: "dilations"
    value {
      list {
        i: 1
        i: 1
        i: 1
        i: 1
      }
    }
  }
  attr {
    key: "padding"
    value {
      s: "SAME"
    }
  }
  attr {
    key: "strides"
    value {
      list {
        i: 1
        i: 1
        i: 1
        i: 1
      }
    }
  }
  attr {
    key: "use_cudnn_on_gpu"
    value {
      b: true
    }
  }
}
node {
  name: "MobilenetV2/expanded_conv_1/expand/Conv2D_bn_offset"
  op: "Const"
  attr {
    key: "dtype"
    value {
      type: DT_FLOAT
    }
  }
  attr {
    key: "value"
    value {
      tensor {
        dtype: DT_FLOAT
        tensor_shape {
          dim {
            size: 48
          }
        }
        tensor_content: "…"
      }
    }
  }
}
node {
  name: "MobilenetV2/expanded_conv_1/expand/BatchNorm/FusedBatchNorm"
  op: "BiasAdd"
  input: "MobilenetV2/expanded_conv_1/expand/Conv2D"
  input: "MobilenetV2/expanded_conv_1/expand/Conv2D_bn_offset"
  attr {
    key: "T"
    value {
      type: DT_FLOAT
    }
  }
  attr {
    key: "data_format"
    value {
      s: "NHWC"
    }
  }
}
node {
  name: "MobilenetV2/expanded_conv_1/expand/Relu6"
  op: "Relu6"
  input: "MobilenetV2/expanded_conv_1/expand/BatchNorm/FusedBatchNorm"
  attr {
    key: "T"
    value {
      type: DT_FLOAT
    }
  }
}
node {
  name: "MobilenetV2/expanded_conv_1/depthwise/depthwise"
  op: "DepthwiseConv2dNative"
  input: "MobilenetV2/expanded_conv_1/expand/Relu6"
  input: "MobilenetV2/expanded_conv_1/depthwise/depthwise_weights"
  attr {
    key: "T"
    value {
      type: DT_FLOAT
    }
  }
  attr {
    key: "data_format"
    value {
      s: "NHWC"
    }
  }
  attr {
    key: "dilations"
    value {
      list {
        i: 1
        i: 1
        i: 1
        i: 1
      }
    }
  }
  attr {
    key: "padding"
    value {
      s: "SAME"
    }
  }
  attr {
    key: "strides"
    value {
      list {
        i: 1
        i: 2
        i: 2
        i: 1
      }
    }
  }
}
node {
  name: "MobilenetV2/expanded_conv_1/depthwise/BatchNorm/FusedBatchNorm"
  op: "FusedBatchNorm"
  input: "MobilenetV2/expanded_conv_1/depthwise/depthwise"
  input: "MobilenetV2/expanded_conv_1/depthwise/BatchNorm/gamma"
  input: "MobilenetV2/expanded_conv_1/depthwise/BatchNorm/beta"
  input: "MobilenetV2/expanded_conv_1/depthwise/BatchNorm/moving_mean"
  input: "MobilenetV2/expanded_conv_1/depthwise/BatchNorm/moving_variance"
  attr {
    key: "T"
    value {
      type: DT_FLOAT
    }
  }
  attr {
    key: "data_format"
    value {
      s: "NHWC"
    }
  }
  attr {
    key: "epsilon"
    value {
      f: 0.0010000000475
    }
  }
  attr {
    key: "is_training"
    value {
      b: false
    }
  }
}
node {
  name: "MobilenetV2/expanded_conv_1/project/weights"
  op: "Const"
  attr {
    key: "dtype"
    value {
      type: DT_FLOAT
    }
  }
  attr {
    key: "value"
    value {
      tensor {
        dtype: DT_FLOAT
        tensor_shape {
          dim {
            size: 1
          }
          dim {
            size: 1
          }
          dim {
            size: 48
          }
          dim {
            size: 8
          }
        }
        tensor_content: "…"
      }
    }
  }
}
node {
  name: "MobilenetV2/expanded_conv_1/depthwise/Relu6"
  op: "Relu6"
  input: "MobilenetV2/expanded_conv_1/depthwise/BatchNorm/FusedBatchNorm"
  attr {
    key: "T"
    value {
      type: DT_FLOAT
    }
  }
}
node {
  name: "MobilenetV2/expanded_conv_1/project/Conv2D"
  op: "Conv2D"
  input: "MobilenetV2/expanded_conv_1/depthwise/Relu6"
  input: "MobilenetV2/expanded_conv_1/project/weights"
  attr {
    key: "T"
    value {
      type: DT_FLOAT
    }
  }
  attr {
    key: "data_format"
    value {
      s: "NHWC"
    }
  }
  attr {
    key: "dilations"
    value {
      list {
        i: 1
        i: 1
        i: 1
        i: 1
      }
    }
  }
  attr {
    key: "padding"
    value {
      s: "SAME"
    }
  }
  attr {
    key: "strides"
    value {
      list {
        i: 1
        i: 1
        i: 1
        i: 1
      }
    }
  }
  attr {
    key: "use_cudnn_on_gpu"
    value {
      b: true
    }
  }
}
node {
  name: "MobilenetV2/expanded_conv_1/project/Conv2D_bn_offset"
  op: "Const"
  attr {
    key: "dtype"
    value {
      type: DT_FLOAT
    }
  }
  attr {
    key: "value"
    value {
      tensor {
        dtype: DT_FLOAT
        tensor_shape {
          dim {
            size: 8
          }
        }
        tensor_content: "\243a~\300\202\035-\300fn\253\277!k<\301\207P\030\301/\202\231\301g$\236\301\313\276\210@"
      }
    }
  }
}
node {
  name: "MobilenetV2/expanded_conv_2/expand/weights"
  op: "Const"
  attr {
    key: "dtype"
    value {
      type: DT_FLOAT
    }
  }
  attr {
    key: "value"
    value {
      tensor {
        dtype: DT_FLOAT
        tensor_shape {
          dim {
            size: 1
          }
          dim {
            size: 1
          }
          dim {
            size: 8
          }
          dim {
            size: 48
          }
        }
        tensor_content: "…"
      }
    }
  }
}
node {
  name: "MobilenetV2/expanded_conv_1/project/BatchNorm/FusedBatchNorm"
  op: "BiasAdd"
  input: "MobilenetV2/expanded_conv_1/project/Conv2D"
  input: "MobilenetV2/expanded_conv_1/project/Conv2D_bn_offset"
  attr {
    key: "T"
    value {
      type: DT_FLOAT
    }
  }
  attr {
    key: "data_format"
    value {
      s: "NHWC"
    }
  }
}
node {
  name: "MobilenetV2/expanded_conv_2/expand/Conv2D"
  op: "Conv2D"
  input: "MobilenetV2/expanded_conv_1/project/BatchNorm/FusedBatchNorm"
  input: "MobilenetV2/expanded_conv_2/expand/weights"
  attr {
    key: "T"
    value {
      type: DT_FLOAT
    }
  }
  attr {
    key: "data_format"
    value {
      s: "NHWC"
    }
  }
  attr {
    key: "dilations"
    value {
      list {
        i: 1
        i: 1
        i: 1
        i: 1
      }
    }
  }
  attr {
    key: "padding"
    value {
      s: "SAME"
    }
  }
  attr {
    key: "strides"
    value {
      list {
        i: 1
        i: 1
        i: 1
        i: 1
      }
    }
  }
  attr {
    key: "use_cudnn_on_gpu"
    value {
      b: true
    }
  }
}
node {
  name: "MobilenetV2/expanded_conv_2/expand/Conv2D_bn_offset"
  op: "Const"
  attr {
    key: "dtype"
    value {
      type: DT_FLOAT
    }
  }
  attr {
    key: "value"
    value {
      tensor {
        dtype: DT_FLOAT
        tensor_shape {
          dim {
            size: 48
          }
        }
        tensor_content: "…"
      }
    }
  }
}
node {
  name: "MobilenetV2/expanded_conv_2/expand/BatchNorm/FusedBatchNorm"
  op: "BiasAdd"
  input: "MobilenetV2/expanded_conv_2/expand/Conv2D"
  input: "MobilenetV2/expanded_conv_2/expand/Conv2D_bn_offset"
  attr {
    key: "T"
    value {
      type: DT_FLOAT
    }
  }
  attr {
    key: "data_format"
    value {
      s: "NHWC"
    }
  }
}
node {
  name: "MobilenetV2/expanded_conv_2/expand/Relu6"
  op: "Relu6"
  input: "MobilenetV2/expanded_conv_2/expand/BatchNorm/FusedBatchNorm"
  attr {
    key: "T"
    value {
      type: DT_FLOAT
    }
  }
}
node {
  name: "MobilenetV2/expanded_conv_2/depthwise/depthwise"
  op: "DepthwiseConv2dNative"
  input: "MobilenetV2/expanded_conv_2/expand/Relu6"
  input: "MobilenetV2/expanded_conv_2/depthwise/depthwise_weights"
  attr {
    key: "T"
    value {
      type: DT_FLOAT
    }
  }
  attr {
    key: "data_format"
    value {
      s: "NHWC"
    }
  }
  attr {
    key: "dilations"
    value {
      list {
        i: 1
        i: 1
        i: 1
        i: 1
      }
    }
  }
  attr {
    key: "padding"
    value {
      s: "SAME"
    }
  }
  attr {
    key: "strides"
    value {
      list {
        i: 1
        i: 1
        i: 1
        i: 1
      }
    }
  }
}
node {
  name: "MobilenetV2/expanded_conv_2/depthwise/BatchNorm/FusedBatchNorm"
  op: "FusedBatchNorm"
  input: "MobilenetV2/expanded_conv_2/depthwise/depthwise"
  input: "MobilenetV2/expanded_conv_2/depthwise/BatchNorm/gamma"
  input: "MobilenetV2/expanded_conv_2/depthwise/BatchNorm/beta"
  input: "MobilenetV2/expanded_conv_2/depthwise/BatchNorm/moving_mean"
  input: "MobilenetV2/expanded_conv_2/depthwise/BatchNorm/moving_variance"
  attr {
    key: "T"
    value {
      type: DT_FLOAT
    }
  }
  attr {
    key: "data_format"
    value {
      s: "NHWC"
    }
  }
  attr {
    key: "epsilon"
    value {
      f: 0.0010000000475
    }
  }
  attr {
    key: "is_training"
    value {
      b: false
    }
  }
}
node {
  name: "MobilenetV2/expanded_conv_2/project/weights"
  op: "Const"
  attr {
    key: "dtype"
    value {
      type: DT_FLOAT
    }
  }
  attr {
    key: "value"
    value {
      tensor {
        dtype: DT_FLOAT
        tensor_shape {
          dim {
            size: 1
          }
          dim {
            size: 1
          }
          dim {
            size: 48
          }
          dim {
            size: 8
          }
        }
        tensor_content: "…"
      }
    }
  }
}
node {
  name: "MobilenetV2/expanded_conv_2/depthwise/Relu6"
  op: "Relu6"
  input: "MobilenetV2/expanded_conv_2/depthwise/BatchNorm/FusedBatchNorm"
  attr {
    key: "T"
    value {
      type: DT_FLOAT
    }
  }
}
node {
  name: "MobilenetV2/expanded_conv_2/project/Conv2D"
  op: "Conv2D"
  input: "MobilenetV2/expanded_conv_2/depthwise/Relu6"
  input: "MobilenetV2/expanded_conv_2/project/weights"
  attr {
    key: "T"
    value {
      type: DT_FLOAT
    }
  }
  attr {
    key: "data_format"
    value {
      s: "NHWC"
    }
  }
  attr {
    key: "dilations"
    value {
      list {
        i: 1
        i: 1
        i: 1
        i: 1
      }
    }
  }
  attr {
    key: "padding"
    value {
      s: "SAME"
    }
  }
  attr {
    key: "strides"
    value {
      list {
        i: 1
        i: 1
        i: 1
        i: 1
      }
    }
  }
  attr {
    key: "use_cudnn_on_gpu"
    value {
      b: true
    }
  }
}
node {
  name: "MobilenetV2/expanded_conv_2/project/Conv2D_bn_offset"
  op: "Const"
  attr {
    key: "dtype"
    value {
      type: DT_FLOAT
    }
  }
  attr {
    key: "value"
    value {
      tensor {
        dtype: DT_FLOAT
        tensor_shape {
          dim {
            size: 8
          }
        }
        tensor_content: "\223m\313@=\253=\301y\312-A\214\323\274\300\022\374\240An\356\206A\371Mw\300\033h\272@"
      }
    }
  }
}
node {
  name: "MobilenetV2/expanded_conv_2/project/BatchNorm/FusedBatchNorm"
  op: "BiasAdd"
  input: "MobilenetV2/expanded_conv_2/project/Conv2D"
  input: "MobilenetV2/expanded_conv_2/project/Conv2D_bn_offset"
  attr {
    key: "T"
    value {
      type: DT_FLOAT
    }
  }
  attr {
    key: "data_format"
    value {
      s: "NHWC"
    }
  }
}
node {
  name: "MobilenetV2/Decoder/skip_3_128x128_bridge/weights"
  op: "Const"
  attr {
    key: "dtype"
    value {
      type: DT_FLOAT
    }
  }
  attr {
    key: "value"
    value {
      tensor {
        dtype: DT_FLOAT
        tensor_shape {
          dim {
            size: 3
          }
          dim {
            size: 3
          }
          dim {
            size: 8
          }
          dim {
            size: 8
          }
        }
        tensor_content: "…"
      }
    }
  }
}
node {
  name: "MobilenetV2/expanded_conv_2/add"
  op: "Add"
  input: "MobilenetV2/expanded_conv_2/project/BatchNorm/FusedBatchNorm"
  input: "MobilenetV2/expanded_conv_1/project/BatchNorm/FusedBatchNorm"
  attr {
    key: "T"
    value {
      type: DT_FLOAT
    }
  }
}
node {
  name: "MobilenetV2/Decoder/skip_3_128x128_bridge/Conv2D"
  op: "Conv2D"
  input: "MobilenetV2/expanded_conv_2/add"
  input: "MobilenetV2/Decoder/skip_3_128x128_bridge/weights"
  attr {
    key: "T"
    value {
      type: DT_FLOAT
    }
  }
  attr {
    key: "data_format"
    value {
      s: "NHWC"
    }
  }
  attr {
    key: "dilations"
    value {
      list {
        i: 1
        i: 1
        i: 1
        i: 1
      }
    }
  }
  attr {
    key: "padding"
    value {
      s: "SAME"
    }
  }
  attr {
    key: "strides"
    value {
      list {
        i: 1
        i: 1
        i: 1
        i: 1
      }
    }
  }
  attr {
    key: "use_cudnn_on_gpu"
    value {
      b: true
    }
  }
}
node {
  name: "MobilenetV2/Decoder/skip_3_128x128_bridge/Conv2D_bn_offset"
  op: "Const"
  attr {
    key: "dtype"
    value {
      type: DT_FLOAT
    }
  }
  attr {
    key: "value"
    value {
      tensor {
        dtype: DT_FLOAT
        tensor_shape {
          dim {
            size: 8
          }
        }
        tensor_content: "|\0211<\205\315\007\275*\375\265=\033\202I=\200!\377;~\352(=\322\375\300<\252\222\032\275"
      }
    }
  }
}
node {
  name: "MobilenetV2/Decoder/skip_3_128x128_bridge/BatchNorm/FusedBatchNorm"
  op: "BiasAdd"
  input: "MobilenetV2/Decoder/skip_3_128x128_bridge/Conv2D"
  input: "MobilenetV2/Decoder/skip_3_128x128_bridge/Conv2D_bn_offset"
  attr {
    key: "T"
    value {
      type: DT_FLOAT
    }
  }
  attr {
    key: "data_format"
    value {
      s: "NHWC"
    }
  }
}
node {
  name: "MobilenetV2/expanded_conv_3/expand/weights"
  op: "Const"
  attr {
    key: "dtype"
    value {
      type: DT_FLOAT
    }
  }
  attr {
    key: "value"
    value {
      tensor {
        dtype: DT_FLOAT
        tensor_shape {
          dim {
            size: 1
          }
          dim {
            size: 1
          }
          dim {
            size: 8
          }
          dim {
            size: 48
          }
        }
        tensor_content: "…"
      }
    }
  }
}
node {
  name: "MobilenetV2/expanded_conv_3/expand/Conv2D"
  op: "Conv2D"
  input: "MobilenetV2/expanded_conv_2/add"
  input: "MobilenetV2/expanded_conv_3/expand/weights"
  attr {
    key: "T"
    value {
      type: DT_FLOAT
    }
  }
  attr {
    key: "data_format"
    value {
      s: "NHWC"
    }
  }
  attr {
    key: "dilations"
    value {
      list {
        i: 1
        i: 1
        i: 1
        i: 1
      }
    }
  }
  attr {
    key: "padding"
    value {
      s: "SAME"
    }
  }
  attr {
    key: "strides"
    value {
      list {
        i: 1
        i: 1
        i: 1
        i: 1
      }
    }
  }
  attr {
    key: "use_cudnn_on_gpu"
    value {
      b: true
    }
  }
}
node {
  name: "MobilenetV2/expanded_conv_3/expand/Conv2D_bn_offset"
  op: "Const"
  attr {
    key: "dtype"
    value {
      type: DT_FLOAT
    }
  }
  attr {
    key: "value"
    value {
      tensor {
        dtype: DT_FLOAT
        tensor_shape {
          dim {
            size: 48
          }
        }
        tensor_content: "…"
      }
    }
  }
}
node {
  name: "MobilenetV2/expanded_conv_3/expand/BatchNorm/FusedBatchNorm"
  op: "BiasAdd"
  input: "MobilenetV2/expanded_conv_3/expand/Conv2D"
  input: "MobilenetV2/expanded_conv_3/expand/Conv2D_bn_offset"
  attr {
    key: "T"
    value {
      type: DT_FLOAT
    }
  }
  attr {
    key: "data_format"
    value {
      s: "NHWC"
    }
  }
}
node {
  name: "MobilenetV2/expanded_conv_3/expand/Relu6"
  op: "Relu6"
  input: "MobilenetV2/expanded_conv_3/expand/BatchNorm/FusedBatchNorm"
  attr {
    key: "T"
    value {
      type: DT_FLOAT
    }
  }
}
node {
  name: "MobilenetV2/expanded_conv_3/depthwise/depthwise"
  op: "DepthwiseConv2dNative"
  input: "MobilenetV2/expanded_conv_3/expand/Relu6"
  input: "MobilenetV2/expanded_conv_3/depthwise/depthwise_weights"
  attr {
    key: "T"
    value {
      type: DT_FLOAT
    }
  }
  attr {
    key: "data_format"
    value {
      s: "NHWC"
    }
  }
  attr {
    key: "dilations"
    value {
      list {
        i: 1
        i: 1
        i: 1
        i: 1
      }
    }
  }
  attr {
    key: "padding"
    value {
      s: "SAME"
    }
  }
  attr {
    key: "strides"
    value {
      list {
        i: 1
        i: 2
        i: 2
        i: 1
      }
    }
  }
}
node {
  name: "MobilenetV2/expanded_conv_3/depthwise/BatchNorm/FusedBatchNorm"
  op: "FusedBatchNorm"
  input: "MobilenetV2/expanded_conv_3/depthwise/depthwise"
  input: "MobilenetV2/expanded_conv_3/depthwise/BatchNorm/gamma"
  input: "MobilenetV2/expanded_conv_3/depthwise/BatchNorm/beta"
  input: "MobilenetV2/expanded_conv_3/depthwise/BatchNorm/moving_mean"
  input: "MobilenetV2/expanded_conv_3/depthwise/BatchNorm/moving_variance"
  attr {
    key: "T"
    value {
      type: DT_FLOAT
    }
  }
  attr {
    key: "data_format"
    value {
      s: "NHWC"
    }
  }
  attr {
    key: "epsilon"
    value {
      f: 0.0010000000475
    }
  }
  attr {
    key: "is_training"
    value {
      b: false
    }
  }
}
node {
  name: "MobilenetV2/expanded_conv_3/project/weights"
  op: "Const"
  attr {
    key: "dtype"
    value {
      type: DT_FLOAT
    }
  }
  attr {
    key: "value"
    value {
      tensor {
        dtype: DT_FLOAT
        tensor_shape {
          dim {
            size: 1
          }
          dim {
            size: 1
          }
          dim {
            size: 48
          }
          dim {
            size: 16
          }
        }
        tensor_content: "…"
      }
    }
  }
}
node {
  name: "MobilenetV2/expanded_conv_3/depthwise/Relu6"
  op: "Relu6"
  input: "MobilenetV2/expanded_conv_3/depthwise/BatchNorm/FusedBatchNorm"
  attr {
    key: "T"
    value {
      type: DT_FLOAT
    }
  }
}
node {
  name: "MobilenetV2/expanded_conv_3/project/Conv2D"
  op: "Conv2D"
  input: "MobilenetV2/expanded_conv_3/depthwise/Relu6"
  input: "MobilenetV2/expanded_conv_3/project/weights"
  attr {
    key: "T"
    value {
      type: DT_FLOAT
    }
  }
  attr {
    key: "data_format"
    value {
      s: "NHWC"
    }
  }
  attr {
    key: "dilations"
    value {
      list {
        i: 1
        i: 1
        i: 1
        i: 1
      }
    }
  }
  attr {
    key: "padding"
    value {
      s: "SAME"
    }
  }
  attr {
    key: "strides"
    value {
      list {
        i: 1
        i: 1
        i: 1
        i: 1
      }
    }
  }
  attr {
    key: "use_cudnn_on_gpu"
    value {
      b: true
    }
  }
}
node {
  name: "MobilenetV2/expanded_conv_3/project/Conv2D_bn_offset"
  op: "Const"
  attr {
    key: "dtype"
    value {
      type: DT_FLOAT
    }
  }
  attr {
    key: "value"
    value {
      tensor {
        dtype: DT_FLOAT
        tensor_shape {
          dim {
            size: 16
          }
        }
        tensor_content: "…"
      }
    }
  }
}
node {
  name: "MobilenetV2/expanded_conv_4/expand/weights"
  op: "Const"
  attr {
    key: "dtype"
    value {
      type: DT_FLOAT
    }
  }
  attr {
    key: "value"
    value {
      tensor {
        dtype: DT_FLOAT
        tensor_shape {
          dim {
            size: 1
          }
          dim {
            size: 1
          }
          dim {
            size: 16
          }
          dim {
            size: 96
          }
        }
        tensor_content: "…"
      }
    }
  }
}
node {
  name: "MobilenetV2/expanded_conv_3/project/BatchNorm/FusedBatchNorm"
  op: "BiasAdd"
  input: "MobilenetV2/expanded_conv_3/project/Conv2D"
  input: "MobilenetV2/expanded_conv_3/project/Conv2D_bn_offset"
  attr {
    key: "T"
    value {
      type: DT_FLOAT
    }
  }
  attr {
    key: "data_format"
    value {
      s: "NHWC"
    }
  }
}
node {
  name: "MobilenetV2/expanded_conv_4/expand/Conv2D"
  op: "Conv2D"
  input: "MobilenetV2/expanded_conv_3/project/BatchNorm/FusedBatchNorm"
  input: "MobilenetV2/expanded_conv_4/expand/weights"
  attr {
    key: "T"
    value {
      type: DT_FLOAT
    }
  }
  attr {
    key: "data_format"
    value {
      s: "NHWC"
    }
  }
  attr {
    key: "dilations"
    value {
      list {
        i: 1
        i: 1
        i: 1
        i: 1
      }
    }
  }
  attr {
    key: "padding"
    value {
      s: "SAME"
    }
  }
  attr {
    key: "strides"
    value {
      list {
        i: 1
        i: 1
        i: 1
        i: 1
      }
    }
  }
  attr {
    key: "use_cudnn_on_gpu"
    value {
      b: true
    }
  }
}
node {
  name: "MobilenetV2/expanded_conv_4/expand/Conv2D_bn_offset"
  op: "Const"
  attr {
    key: "dtype"
    value {
      type: DT_FLOAT
    }
  }
  attr {
    key: "value"
    value {
      tensor {
        dtype: DT_FLOAT
        tensor_shape {
          dim {
            size: 96
          }
        }
        tensor_content: "…"
      }
    }
  }
}
node {
  name: "MobilenetV2/expanded_conv_4/expand/BatchNorm/FusedBatchNorm"
  op: "BiasAdd"
  input: "MobilenetV2/expanded_conv_4/expand/Conv2D"
  input: "MobilenetV2/expanded_conv_4/expand/Conv2D_bn_offset"
  attr {
    key: "T"
    value {
      type: DT_FLOAT
    }
  }
  attr {
    key: "data_format"
    value {
      s: "NHWC"
    }
  }
}
node {
  name: "MobilenetV2/expanded_conv_4/expand/Relu6"
  op: "Relu6"
  input: "MobilenetV2/expanded_conv_4/expand/BatchNorm/FusedBatchNorm"
  attr {
    key: "T"
    value {
      type: DT_FLOAT
    }
  }
}
node {
  name: "MobilenetV2/expanded_conv_4/depthwise/depthwise"
  op: "DepthwiseConv2dNative"
  input: "MobilenetV2/expanded_conv_4/expand/Relu6"
  input: "MobilenetV2/expanded_conv_4/depthwise/depthwise_weights"
  attr {
    key: "T"
    value {
      type: DT_FLOAT
    }
  }
  attr {
    key: "data_format"
    value {
      s: "NHWC"
    }
  }
  attr {
    key: "dilations"
    value {
      list {
        i: 1
        i: 1
        i: 1
        i: 1
      }
    }
  }
  attr {
    key: "padding"
    value {
      s: "SAME"
    }
  }
  attr {
    key: "strides"
    value {
      list {
        i: 1
        i: 1
        i: 1
        i: 1
      }
    }
  }
}
node {
  name: "MobilenetV2/expanded_conv_4/depthwise/BatchNorm/FusedBatchNorm"
  op: "FusedBatchNorm"
  input: "MobilenetV2/expanded_conv_4/depthwise/depthwise"
  input: "MobilenetV2/expanded_conv_4/depthwise/BatchNorm/gamma"
  input: "MobilenetV2/expanded_conv_4/depthwise/BatchNorm/beta"
  input: "MobilenetV2/expanded_conv_4/depthwise/BatchNorm/moving_mean"
  input: "MobilenetV2/expanded_conv_4/depthwise/BatchNorm/moving_variance"
  attr {
    key: "T"
    value {
      type: DT_FLOAT
    }
  }
  attr {
    key: "data_format"
    value {
      s: "NHWC"
    }
  }
  attr {
    key: "epsilon"
    value {
      f: 0.0010000000475
    }
  }
  attr {
    key: "is_training"
    value {
      b: false
    }
  }
}
node {
  name: "MobilenetV2/expanded_conv_4/project/weights"
  op: "Const"
  attr {
    key: "dtype"
    value {
      type: DT_FLOAT
    }
  }
  attr {
    key: "value"
    value {
      tensor {
        dtype: DT_FLOAT
        tensor_shape {
          dim {
            size: 1
          }
          dim {
            size: 1
          }
          dim {
            size: 96
          }
          dim {
            size: 16
          }
        }
        tensor_content: "…"
      }
    }
  }
}
node {
  name: "MobilenetV2/expanded_conv_4/depthwise/Relu6"
  op: "Relu6"
  input: "MobilenetV2/expanded_conv_4/depthwise/BatchNorm/FusedBatchNorm"
  attr {
    key: "T"
    value {
      type: DT_FLOAT
    }
  }
}
node {
  name: "MobilenetV2/expanded_conv_4/project/Conv2D"
  op: "Conv2D"
  input: "MobilenetV2/expanded_conv_4/depthwise/Relu6"
  input: "MobilenetV2/expanded_conv_4/project/weights"
  attr {
    key: "T"
    value {
      type: DT_FLOAT
    }
  }
  attr {
    key: "data_format"
    value {
      s: "NHWC"
    }
  }
  attr {
    key: "dilations"
    value {
      list {
        i: 1
        i: 1
        i: 1
        i: 1
      }
    }
  }
  attr {
    key: "padding"
    value {
      s: "SAME"
    }
  }
  attr {
    key: "strides"
    value {
      list {
        i: 1
        i: 1
        i: 1
        i: 1
      }
    }
  }
  attr {
    key: "use_cudnn_on_gpu"
    value {
      b: true
    }
  }
}
node {
  name: "MobilenetV2/expanded_conv_4/project/Conv2D_bn_offset"
  op: "Const"
  attr {
    key: "dtype"
    value {
      type: DT_FLOAT
    }
  }
  attr {
    key: "value"
    value {
      tensor {
        dtype: DT_FLOAT
        tensor_shape {
          dim {
            size: 16
          }
        }
        tensor_content: "…"
      }
    }
  }
}
node {
  name: "MobilenetV2/expanded_conv_4/project/BatchNorm/FusedBatchNorm"
  op: "BiasAdd"
  input: "MobilenetV2/expanded_conv_4/project/Conv2D"
  input: "MobilenetV2/expanded_conv_4/project/Conv2D_bn_offset"
  attr {
    key: "T"
    value {
      type: DT_FLOAT
    }
  }
  attr {
    key: "data_format"
    value {
      s: "NHWC"
    }
  }
}
node {
  name: "MobilenetV2/expanded_conv_5/expand/weights"
  op: "Const"
  attr {
    key: "dtype"
    value {
      type: DT_FLOAT
    }
  }
  attr {
    key: "value"
    value {
      tensor {
        dtype: DT_FLOAT
        tensor_shape {
          dim {
            size: 1
          }
          dim {
            size: 1
          }
          dim {
            size: 16
          }
          dim {
            size: 96
          }
        }
        tensor_content: "…"
      }
    }
  }
}
node {
  name: "MobilenetV2/expanded_conv_4/add"
  op: "Add"
  input: "MobilenetV2/expanded_conv_4/project/BatchNorm/FusedBatchNorm"
  input: "MobilenetV2/expanded_conv_3/project/BatchNorm/FusedBatchNorm"
  attr {
    key: "T"
    value {
      type: DT_FLOAT
    }
  }
}
node {
  name: "MobilenetV2/expanded_conv_5/expand/Conv2D"
  op: "Conv2D"
  input: "MobilenetV2/expanded_conv_4/add"
  input: "MobilenetV2/expanded_conv_5/expand/weights"
  attr {
    key: "T"
    value {
      type: DT_FLOAT
    }
  }
  attr {
    key: "data_format"
    value {
      s: "NHWC"
    }
  }
  attr {
    key: "dilations"
    value {
      list {
        i: 1
        i: 1
        i: 1
        i: 1
      }
    }
  }
  attr {
    key: "padding"
    value {
      s: "SAME"
    }
  }
  attr {
    key: "strides"
    value {
      list {
        i: 1
        i: 1
        i: 1
        i: 1
      }
    }
  }
  attr {
    key: "use_cudnn_on_gpu"
    value {
      b: true
    }
  }
}
node {
  name: "MobilenetV2/expanded_conv_5/expand/Conv2D_bn_offset"
  op: "Const"
  attr {
    key: "dtype"
    value {
      type: DT_FLOAT
    }
  }
  attr {
    key: "value"
    value {
      tensor {
        dtype: DT_FLOAT
        tensor_shape {
          dim {
            size: 96
          }
        }
        tensor_content: "…"
      }
    }
  }
}
node {
  name: "MobilenetV2/expanded_conv_5/expand/BatchNorm/FusedBatchNorm"
  op: "BiasAdd"
  input: "MobilenetV2/expanded_conv_5/expand/Conv2D"
  input: "MobilenetV2/expanded_conv_5/expand/Conv2D_bn_offset"
  attr {
    key: "T"
    value {
      type: DT_FLOAT
    }
  }
  attr {
    key: "data_format"
    value {
      s: "NHWC"
    }
  }
}
node {
  name: "MobilenetV2/expanded_conv_5/expand/Relu6"
  op: "Relu6"
  input: "MobilenetV2/expanded_conv_5/expand/BatchNorm/FusedBatchNorm"
  attr {
    key: "T"
    value {
      type: DT_FLOAT
    }
  }
}
node {
  name: "MobilenetV2/expanded_conv_5/depthwise/depthwise"
  op: "DepthwiseConv2dNative"
  input: "MobilenetV2/expanded_conv_5/expand/Relu6"
  input: "MobilenetV2/expanded_conv_5/depthwise/depthwise_weights"
  attr {
    key: "T"
    value {
      type: DT_FLOAT
    }
  }
  attr {
    key: "data_format"
    value {
      s: "NHWC"
    }
  }
  attr {
    key: "dilations"
    value {
      list {
        i: 1
        i: 1
        i: 1
        i: 1
      }
    }
  }
  attr {
    key: "padding"
    value {
      s: "SAME"
    }
  }
  attr {
    key: "strides"
    value {
      list {
        i: 1
        i: 1
        i: 1
        i: 1
      }
    }
  }
}
node {
  name: "MobilenetV2/expanded_conv_5/depthwise/BatchNorm/FusedBatchNorm"
  op: "FusedBatchNorm"
  input: "MobilenetV2/expanded_conv_5/depthwise/depthwise"
  input: "MobilenetV2/expanded_conv_5/depthwise/BatchNorm/gamma"
  input: "MobilenetV2/expanded_conv_5/depthwise/BatchNorm/beta"
  input: "MobilenetV2/expanded_conv_5/depthwise/BatchNorm/moving_mean"
  input: "MobilenetV2/expanded_conv_5/depthwise/BatchNorm/moving_variance"
  attr {
    key: "T"
    value {
      type: DT_FLOAT
    }
  }
  attr {
    key: "data_format"
    value {
      s: "NHWC"
    }
  }
  attr {
    key: "epsilon"
    value {
      f: 0.0010000000475
    }
  }
  attr {
    key: "is_training"
    value {
      b: false
    }
  }
}
node {
  name: "MobilenetV2/expanded_conv_5/project/weights"
  op: "Const"
  attr {
    key: "dtype"
    value {
      type: DT_FLOAT
    }
  }
  attr {
    key: "value"
    value {
      tensor {
        dtype: DT_FLOAT
        tensor_shape {
          dim {
            size: 1
          }
          dim {
            size: 1
          }
          dim {
            size: 96
          }
          dim {
            size: 16
          }
        }
        tensor_content: "…"
      }
    }
  }
}
node {
  name: "MobilenetV2/expanded_conv_5/depthwise/Relu6"
  op: "Relu6"
  input: "MobilenetV2/expanded_conv_5/depthwise/BatchNorm/FusedBatchNorm"
  attr {
    key: "T"
    value {
      type: DT_FLOAT
    }
  }
}
node {
  name: "MobilenetV2/expanded_conv_5/project/Conv2D"
  op: "Conv2D"
  input: "MobilenetV2/expanded_conv_5/depthwise/Relu6"
  input: "MobilenetV2/expanded_conv_5/project/weights"
  attr {
    key: "T"
    value {
      type: DT_FLOAT
    }
  }
  attr {
    key: "data_format"
    value {
      s: "NHWC"
    }
  }
  attr {
    key: "dilations"
    value {
      list {
        i: 1
        i: 1
        i: 1
        i: 1
      }
    }
  }
  attr {
    key: "padding"
    value {
      s: "SAME"
    }
  }
  attr {
    key: "strides"
    value {
      list {
        i: 1
        i: 1
        i: 1
        i: 1
      }
    }
  }
  attr {
    key: "use_cudnn_on_gpu"
    value {
      b: true
    }
  }
}
node {
  name: "MobilenetV2/expanded_conv_5/project/Conv2D_bn_offset"
  op: "Const"
  attr {
    key: "dtype"
    value {
      type: DT_FLOAT
    }
  }
  attr {
    key: "value"
    value {
      tensor {
        dtype: DT_FLOAT
        tensor_shape {
          dim {
            size: 16
          }
        }
        tensor_content: "…"
      }
    }
  }
}
node {
  name: "MobilenetV2/expanded_conv_5/project/BatchNorm/FusedBatchNorm"
  op: "BiasAdd"
  input: "MobilenetV2/expanded_conv_5/project/Conv2D"
  input: "MobilenetV2/expanded_conv_5/project/Conv2D_bn_offset"
  attr {
    key: "T"
    value {
      type: DT_FLOAT
    }
  }
  attr {
    key: "data_format"
    value {
      s: "NHWC"
    }
  }
}
node {
  name: "MobilenetV2/Decoder/skip_2_64x64_bridge/weights"
  op: "Const"
  attr {
    key: "dtype"
    value {
      type: DT_FLOAT
    }
  }
  attr {
    key: "value"
    value {
      tensor {
        dtype: DT_FLOAT
        tensor_shape {
          dim {
            size: 3
          }
          dim {
            size: 3
          }
          dim {
            size: 16
          }
          dim {
            size: 8
          }
        }
        tensor_content: "…"
      }
    }
  }
}
node {
  name: "MobilenetV2/expanded_conv_5/add"
  op: "Add"
  input: "MobilenetV2/expanded_conv_5/project/BatchNorm/FusedBatchNorm"
  input: "MobilenetV2/expanded_conv_4/add"
  attr {
    key: "T"
    value {
      type: DT_FLOAT
    }
  }
}
node {
  name: "MobilenetV2/Decoder/skip_2_64x64_bridge/Conv2D"
  op: "Conv2D"
  input: "MobilenetV2/expanded_conv_5/add"
  input: "MobilenetV2/Decoder/skip_2_64x64_bridge/weights"
  attr {
    key: "T"
    value {
      type: DT_FLOAT
    }
  }
  attr {
    key: "data_format"
    value {
      s: "NHWC"
    }
  }
  attr {
    key: "dilations"
    value {
      list {
        i: 1
        i: 1
        i: 1
        i: 1
      }
    }
  }
  attr {
    key: "padding"
    value {
      s: "SAME"
    }
  }
  attr {
    key: "strides"
    value {
      list {
        i: 1
        i: 1
        i: 1
        i: 1
      }
    }
  }
  attr {
    key: "use_cudnn_on_gpu"
    value {
      b: true
    }
  }
}
node {
  name: "MobilenetV2/Decoder/skip_2_64x64_bridge/Conv2D_bn_offset"
  op: "Const"
  attr {
    key: "dtype"
    value {
      type: DT_FLOAT
    }
  }
  attr {
    key: "value"
    value {
      tensor {
        dtype: DT_FLOAT
        tensor_shape {
          dim {
            size: 8
          }
        }
        tensor_content: "x&\220\273\242\355\226\275~\245\004=_\214\333=\332\264\"=L\263\337<\270\200\245;\'\027L<"
      }
    }
  }
}
node {
  name: "MobilenetV2/Decoder/skip_2_64x64_bridge/BatchNorm/FusedBatchNorm"
  op: "BiasAdd"
  input: "MobilenetV2/Decoder/skip_2_64x64_bridge/Conv2D"
  input: "MobilenetV2/Decoder/skip_2_64x64_bridge/Conv2D_bn_offset"
  attr {
    key: "T"
    value {
      type: DT_FLOAT
    }
  }
  attr {
    key: "data_format"
    value {
      s: "NHWC"
    }
  }
}
node {
  name: "MobilenetV2/expanded_conv_6/expand/weights"
  op: "Const"
  attr {
    key: "dtype"
    value {
      type: DT_FLOAT
    }
  }
  attr {
    key: "value"
    value {
      tensor {
        dtype: DT_FLOAT
        tensor_shape {
          dim {
            size: 1
          }
          dim {
            size: 1
          }
          dim {
            size: 16
          }
          dim {
            size: 96
          }
        }
        tensor_content: "…"
      }
    }
  }
}
node {
  name: "MobilenetV2/expanded_conv_6/expand/Conv2D"
  op: "Conv2D"
  input: "MobilenetV2/expanded_conv_5/add"
  input: "MobilenetV2/expanded_conv_6/expand/weights"
  attr {
    key: "T"
    value {
      type: DT_FLOAT
    }
  }
  attr {
    key: "data_format"
    value {
      s: "NHWC"
    }
  }
  attr {
    key: "dilations"
    value {
      list {
        i: 1
        i: 1
        i: 1
        i: 1
      }
    }
  }
  attr {
    key: "padding"
    value {
      s: "SAME"
    }
  }
  attr {
    key: "strides"
    value {
      list {
        i: 1
        i: 1
        i: 1
        i: 1
      }
    }
  }
  attr {
    key: "use_cudnn_on_gpu"
    value {
      b: true
    }
  }
}
node {
  name: "MobilenetV2/expanded_conv_6/expand/Conv2D_bn_offset"
  op: "Const"
  attr {
    key: "dtype"
    value {
      type: DT_FLOAT
    }
  }
  attr {
    key: "value"
    value {
      tensor {
        dtype: DT_FLOAT
        tensor_shape {
          dim {
            size: 96
          }
        }
        tensor_content: "…"
      }
    }
  }
}
node {
  name: "MobilenetV2/expanded_conv_6/expand/BatchNorm/FusedBatchNorm"
  op: "BiasAdd"
  input: "MobilenetV2/expanded_conv_6/expand/Conv2D"
  input: "MobilenetV2/expanded_conv_6/expand/Conv2D_bn_offset"
  attr {
    key: "T"
    value {
      type: DT_FLOAT
    }
  }
  attr {
    key: "data_format"
    value {
      s: "NHWC"
    }
  }
}
node {
  name: "MobilenetV2/expanded_conv_6/expand/Relu6"
  op: "Relu6"
  input: "MobilenetV2/expanded_conv_6/expand/BatchNorm/FusedBatchNorm"
  attr {
    key: "T"
    value {
      type: DT_FLOAT
    }
  }
}
node {
  name: "MobilenetV2/expanded_conv_6/depthwise/depthwise"
  op: "DepthwiseConv2dNative"
  input: "MobilenetV2/expanded_conv_6/expand/Relu6"
  input: "MobilenetV2/expanded_conv_6/depthwise/depthwise_weights"
  attr {
    key: "T"
    value {
      type: DT_FLOAT
    }
  }
  attr {
    key: "data_format"
    value {
      s: "NHWC"
    }
  }
  attr {
    key: "dilations"
    value {
      list {
        i: 1
        i: 1
        i: 1
        i: 1
      }
    }
  }
  attr {
    key: "padding"
    value {
      s: "SAME"
    }
  }
  attr {
    key: "strides"
    value {
      list {
        i: 1
        i: 2
        i: 2
        i: 1
      }
    }
  }
}
node {
  name: "MobilenetV2/expanded_conv_6/depthwise/BatchNorm/FusedBatchNorm"
  op: "FusedBatchNorm"
  input: "MobilenetV2/expanded_conv_6/depthwise/depthwise"
  input: "MobilenetV2/expanded_conv_6/depthwise/BatchNorm/gamma"
  input: "MobilenetV2/expanded_conv_6/depthwise/BatchNorm/beta"
  input: "MobilenetV2/expanded_conv_6/depthwise/BatchNorm/moving_mean"
  input: "MobilenetV2/expanded_conv_6/depthwise/BatchNorm/moving_variance"
  attr {
    key: "T"
    value {
      type: DT_FLOAT
    }
  }
  attr {
    key: "data_format"
    value {
      s: "NHWC"
    }
  }
  attr {
    key: "epsilon"
    value {
      f: 0.0010000000475
    }
  }
  attr {
    key: "is_training"
    value {
      b: false
    }
  }
}
node {
  name: "MobilenetV2/expanded_conv_6/project/weights"
  op: "Const"
  attr {
    key: "dtype"
    value {
      type: DT_FLOAT
    }
  }
  attr {
    key: "value"
    value {
      tensor {
        dtype: DT_FLOAT
        tensor_shape {
          dim {
            size: 1
          }
          dim {
            size: 1
          }
          dim {
            size: 96
          }
          dim {
            size: 24
          }
        }
        tensor_content: "…"
      }
    }
  }
}
node {
  name: "MobilenetV2/expanded_conv_6/depthwise/Relu6"
  op: "Relu6"
  input: "MobilenetV2/expanded_conv_6/depthwise/BatchNorm/FusedBatchNorm"
  attr {
    key: "T"
    value {
      type: DT_FLOAT
    }
  }
}
node {
  name: "MobilenetV2/expanded_conv_6/project/Conv2D"
  op: "Conv2D"
  input: "MobilenetV2/expanded_conv_6/depthwise/Relu6"
  input: "MobilenetV2/expanded_conv_6/project/weights"
  attr {
    key: "T"
    value {
      type: DT_FLOAT
    }
  }
  attr {
    key: "data_format"
    value {
      s: "NHWC"
    }
  }
  attr {
    key: "dilations"
    value {
      list {
        i: 1
        i: 1
        i: 1
        i: 1
      }
    }
  }
  attr {
    key: "padding"
    value {
      s: "SAME"
    }
  }
  attr {
    key: "strides"
    value {
      list {
        i: 1
        i: 1
        i: 1
        i: 1
      }
    }
  }
  attr {
    key: "use_cudnn_on_gpu"
    value {
      b: true
    }
  }
}
node {
  name: "MobilenetV2/expanded_conv_6/project/Conv2D_bn_offset"
  op: "Const"
  attr {
    key: "dtype"
    value {
      type: DT_FLOAT
    }
  }
  attr {
    key: "value"
    value {
      tensor {
        dtype: DT_FLOAT
        tensor_shape {
          dim {
            size: 24
          }
        }
        tensor_content: "…"
      }
    }
  }
}
node {
  name: "MobilenetV2/expanded_conv_7/expand/weights"
  op: "Const"
  attr {
    key: "dtype"
    value {
      type: DT_FLOAT
    }
  }
  attr {
    key: "value"
    value {
      tensor {
        dtype: DT_FLOAT
        tensor_shape {
          dim {
            size: 1
          }
          dim {
            size: 1
          }
          dim {
            size: 24
          }
          dim {
            size: 144
          }
        }
        tensor_content: "…"
      }
    }
  }
}
node {
  name: "MobilenetV2/expanded_conv_6/project/BatchNorm/FusedBatchNorm"
  op: "BiasAdd"
  input: "MobilenetV2/expanded_conv_6/project/Conv2D"
  input: "MobilenetV2/expanded_conv_6/project/Conv2D_bn_offset"
  attr {
    key: "T"
    value {
      type: DT_FLOAT
    }
  }
  attr {
    key: "data_format"
    value {
      s: "NHWC"
    }
  }
}
node {
  name: "MobilenetV2/expanded_conv_7/expand/Conv2D"
  op: "Conv2D"
  input: "MobilenetV2/expanded_conv_6/project/BatchNorm/FusedBatchNorm"
  input: "MobilenetV2/expanded_conv_7/expand/weights"
  attr {
    key: "T"
    value {
      type: DT_FLOAT
    }
  }
  attr {
    key: "data_format"
    value {
      s: "NHWC"
    }
  }
  attr {
    key: "dilations"
    value {
      list {
        i: 1
        i: 1
        i: 1
        i: 1
      }
    }
  }
  attr {
    key: "padding"
    value {
      s: "SAME"
    }
  }
  attr {
    key: "strides"
    value {
      list {
        i: 1
        i: 1
        i: 1
        i: 1
      }
    }
  }
  attr {
    key: "use_cudnn_on_gpu"
    value {
      b: true
    }
  }
}
node {
  name: "MobilenetV2/expanded_conv_7/expand/Conv2D_bn_offset"
  op: "Const"
  attr {
    key: "dtype"
    value {
      type: DT_FLOAT
    }
  }
  attr {
    key: "value"
    value {
      tensor {
        dtype: DT_FLOAT
        tensor_shape {
          dim {
            size: 144
          }
        }
        tensor_content: "…"
      }
    }
  }
}
node {
  name: "MobilenetV2/expanded_conv_7/expand/BatchNorm/FusedBatchNorm"
  op: "BiasAdd"
  input: "MobilenetV2/expanded_conv_7/expand/Conv2D"
  input: "MobilenetV2/expanded_conv_7/expand/Conv2D_bn_offset"
  attr {
    key: "T"
    value {
      type: DT_FLOAT
    }
  }
  attr {
    key: "data_format"
    value {
      s: "NHWC"
    }
  }
}
node {
  name: "MobilenetV2/expanded_conv_7/expand/Relu6"
  op: "Relu6"
  input: "MobilenetV2/expanded_conv_7/expand/BatchNorm/FusedBatchNorm"
  attr {
    key: "T"
    value {
      type: DT_FLOAT
    }
  }
}
node {
  name: "MobilenetV2/expanded_conv_7/depthwise/depthwise"
  op: "DepthwiseConv2dNative"
  input: "MobilenetV2/expanded_conv_7/expand/Relu6"
  input: "MobilenetV2/expanded_conv_7/depthwise/depthwise_weights"
  attr {
    key: "T"
    value {
      type: DT_FLOAT
    }
  }
  attr {
    key: "data_format"
    value {
      s: "NHWC"
    }
  }
  attr {
    key: "dilations"
    value {
      list {
        i: 1
        i: 1
        i: 1
        i: 1
      }
    }
  }
  attr {
    key: "padding"
    value {
      s: "SAME"
    }
  }
  attr {
    key: "strides"
    value {
      list {
        i: 1
        i: 1
        i: 1
        i: 1
      }
    }
  }
}
node {
  name: "MobilenetV2/expanded_conv_7/depthwise/BatchNorm/FusedBatchNorm"
  op: "FusedBatchNorm"
  input: "MobilenetV2/expanded_conv_7/depthwise/depthwise"
  input: "MobilenetV2/expanded_conv_7/depthwise/BatchNorm/gamma"
  input: "MobilenetV2/expanded_conv_7/depthwise/BatchNorm/beta"
  input: "MobilenetV2/expanded_conv_7/depthwise/BatchNorm/moving_mean"
  input: "MobilenetV2/expanded_conv_7/depthwise/BatchNorm/moving_variance"
  attr {
    key: "T"
    value {
      type: DT_FLOAT
    }
  }
  attr {
    key: "data_format"
    value {
      s: "NHWC"
    }
  }
  attr {
    key: "epsilon"
    value {
      f: 0.0010000000475
    }
  }
  attr {
    key: "is_training"
    value {
      b: false
    }
  }
}
node {
  name: "MobilenetV2/expanded_conv_7/project/weights"
  op: "Const"
  attr {
    key: "dtype"
    value {
      type: DT_FLOAT
    }
  }
  attr {
    key: "value"
    value {
      tensor {
        dtype: DT_FLOAT
        tensor_shape {
          dim {
            size: 1
          }
          dim {
            size: 1
          }
          dim {
            size: 144
          }
          dim {
            size: 24
          }
        }
        tensor_content: "…"
      }
    }
  }
}
node {
  name: "MobilenetV2/expanded_conv_7/depthwise/Relu6"
  op: "Relu6"
  input: "MobilenetV2/expanded_conv_7/depthwise/BatchNorm/FusedBatchNorm"
  attr {
    key: "T"
    value {
      type: DT_FLOAT
    }
  }
}
node {
  name: "MobilenetV2/expanded_conv_7/project/Conv2D"
  op: "Conv2D"
  input: "MobilenetV2/expanded_conv_7/depthwise/Relu6"
  input: "MobilenetV2/expanded_conv_7/project/weights"
  attr {
    key: "T"
    value {
      type: DT_FLOAT
    }
  }
  attr {
    key: "data_format"
    value {
      s: "NHWC"
    }
  }
  attr {
    key: "dilations"
    value {
      list {
        i: 1
        i: 1
        i: 1
        i: 1
      }
    }
  }
  attr {
    key: "padding"
    value {
      s: "SAME"
    }
  }
  attr {
    key: "strides"
    value {
      list {
        i: 1
        i: 1
        i: 1
        i: 1
      }
    }
  }
  attr {
    key: "use_cudnn_on_gpu"
    value {
      b: true
    }
  }
}
node {
  name: "MobilenetV2/expanded_conv_7/project/Conv2D_bn_offset"
  op: "Const"
  attr {
    key: "dtype"
    value {
      type: DT_FLOAT
    }
  }
  attr {
    key: "value"
    value {
      tensor {
        dtype: DT_FLOAT
        tensor_shape {
          dim {
            size: 24
          }
        }
        tensor_content: "…"
      }
    }
  }
}
node {
  name: "MobilenetV2/expanded_conv_7/project/BatchNorm/FusedBatchNorm"
  op: "BiasAdd"
  input: "MobilenetV2/expanded_conv_7/project/Conv2D"
  input: "MobilenetV2/expanded_conv_7/project/Conv2D_bn_offset"
  attr {
    key: "T"
    value {
      type: DT_FLOAT
    }
  }
  attr {
    key: "data_format"
    value {
      s: "NHWC"
    }
  }
}
node {
  name: "MobilenetV2/expanded_conv_8/expand/weights"
  op: "Const"
  attr {
    key: "dtype"
    value {
      type: DT_FLOAT
    }
  }
  attr {
    key: "value"
    value {
      tensor {
        dtype: DT_FLOAT
        tensor_shape {
          dim {
            size: 1
          }
          dim {
            size: 1
          }
          dim {
            size: 24
          }
          dim {
            size: 144
          }
        }
        tensor_content: "…"
      }
    }
  }
}
node {
  name: "MobilenetV2/expanded_conv_7/add"
  op: "Add"
  input: "MobilenetV2/expanded_conv_7/project/BatchNorm/FusedBatchNorm"
  input: "MobilenetV2/expanded_conv_6/project/BatchNorm/FusedBatchNorm"
  attr {
    key: "T"
    value {
      type: DT_FLOAT
    }
  }
}
node {
  name: "MobilenetV2/expanded_conv_8/expand/Conv2D"
  op: "Conv2D"
  input: "MobilenetV2/expanded_conv_7/add"
  input: "MobilenetV2/expanded_conv_8/expand/weights"
  attr {
    key: "T"
    value {
      type: DT_FLOAT
    }
  }
  attr {
    key: "data_format"
    value {
      s: "NHWC"
    }
  }
  attr {
    key: "dilations"
    value {
      list {
        i: 1
        i: 1
        i: 1
        i: 1
      }
    }
  }
  attr {
    key: "padding"
    value {
      s: "SAME"
    }
  }
  attr {
    key: "strides"
    value {
      list {
        i: 1
        i: 1
        i: 1
        i: 1
      }
    }
  }
  attr {
    key: "use_cudnn_on_gpu"
    value {
      b: true
    }
  }
}
node {
  name: "MobilenetV2/expanded_conv_8/expand/Conv2D_bn_offset"
  op: "Const"
  attr {
    key: "dtype"
    value {
      type: DT_FLOAT
    }
  }
  attr {
    key: "value"
    value {
      tensor {
        dtype: DT_FLOAT
        tensor_shape {
          dim {
            size: 144
          }
        }
        tensor_content: "…"
      }
    }
  }
}
node {
  name: "MobilenetV2/expanded_conv_8/expand/BatchNorm/FusedBatchNorm"
  op: "BiasAdd"
  input: "MobilenetV2/expanded_conv_8/expand/Conv2D"
  input: "MobilenetV2/expanded_conv_8/expand/Conv2D_bn_offset"
  attr {
    key: "T"
    value {
      type: DT_FLOAT
    }
  }
  attr {
    key: "data_format"
    value {
      s: "NHWC"
    }
  }
}
node {
  name: "MobilenetV2/expanded_conv_8/expand/Relu6"
  op: "Relu6"
  input: "MobilenetV2/expanded_conv_8/expand/BatchNorm/FusedBatchNorm"
  attr {
    key: "T"
    value {
      type: DT_FLOAT
    }
  }
}
node {
  name: "MobilenetV2/expanded_conv_8/depthwise/depthwise"
  op: "DepthwiseConv2dNative"
  input: "MobilenetV2/expanded_conv_8/expand/Relu6"
  input: "MobilenetV2/expanded_conv_8/depthwise/depthwise_weights"
  attr {
    key: "T"
    value {
      type: DT_FLOAT
    }
  }
  attr {
    key: "data_format"
    value {
      s: "NHWC"
    }
  }
  attr {
    key: "dilations"
    value {
      list {
        i: 1
        i: 1
        i: 1
        i: 1
      }
    }
  }
  attr {
    key: "padding"
    value {
      s: "SAME"
    }
  }
  attr {
    key: "strides"
    value {
      list {
        i: 1
        i: 1
        i: 1
        i: 1
      }
    }
  }
}
node {
  name: "MobilenetV2/expanded_conv_8/depthwise/BatchNorm/FusedBatchNorm"
  op: "FusedBatchNorm"
  input: "MobilenetV2/expanded_conv_8/depthwise/depthwise"
  input: "MobilenetV2/expanded_conv_8/depthwise/BatchNorm/gamma"
  input: "MobilenetV2/expanded_conv_8/depthwise/BatchNorm/beta"
  input: "MobilenetV2/expanded_conv_8/depthwise/BatchNorm/moving_mean"
  input: "MobilenetV2/expanded_conv_8/depthwise/BatchNorm/moving_variance"
  attr {
    key: "T"
    value {
      type: DT_FLOAT
    }
  }
  attr {
    key: "data_format"
    value {
      s: "NHWC"
    }
  }
  attr {
    key: "epsilon"
    value {
      f: 0.0010000000475
    }
  }
  attr {
    key: "is_training"
    value {
      b: false
    }
  }
}
node {
  name: "MobilenetV2/expanded_conv_8/project/weights"
  op: "Const"
  attr {
    key: "dtype"
    value {
      type: DT_FLOAT
    }
  }
  attr {
    key: "value"
    value {
      tensor {
        dtype: DT_FLOAT
        tensor_shape {
          dim {
            size: 1
          }
          dim {
            size: 1
          }
          dim {
            size: 144
          }
          dim {
            size: 24
          }
        }
        tensor_content: "…"
      }
    }
  }
}
node {
  name: "MobilenetV2/expanded_conv_8/depthwise/Relu6"
  op: "Relu6"
  input: "MobilenetV2/expanded_conv_8/depthwise/BatchNorm/FusedBatchNorm"
  attr {
    key: "T"
    value {
      type: DT_FLOAT
    }
  }
}
node {
  name: "MobilenetV2/expanded_conv_8/project/Conv2D"
  op: "Conv2D"
  input: "MobilenetV2/expanded_conv_8/depthwise/Relu6"
  input: "MobilenetV2/expanded_conv_8/project/weights"
  attr {
    key: "T"
    value {
      type: DT_FLOAT
    }
  }
  attr {
    key: "data_format"
    value {
      s: "NHWC"
    }
  }
  attr {
    key: "dilations"
    value {
      list {
        i: 1
        i: 1
        i: 1
        i: 1
      }
    }
  }
  attr {
    key: "padding"
    value {
      s: "SAME"
    }
  }
  attr {
    key: "strides"
    value {
      list {
        i: 1
        i: 1
        i: 1
        i: 1
      }
    }
  }
  attr {
    key: "use_cudnn_on_gpu"
    value {
      b: true
    }
  }
}
node {
  name: "MobilenetV2/expanded_conv_8/project/Conv2D_bn_offset"
  op: "Const"
  attr {
    key: "dtype"
    value {
      type: DT_FLOAT
    }
  }
  attr {
    key: "value"
    value {
      tensor {
        dtype: DT_FLOAT
        tensor_shape {
          dim {
            size: 24
          }
        }
        tensor_content: "…"
      }
    }
  }
}
node {
  name: "MobilenetV2/expanded_conv_8/project/BatchNorm/FusedBatchNorm"
  op: "BiasAdd"
  input: "MobilenetV2/expanded_conv_8/project/Conv2D"
  input: "MobilenetV2/expanded_conv_8/project/Conv2D_bn_offset"
  attr {
    key: "T"
    value {
      type: DT_FLOAT
    }
  }
  attr {
    key: "data_format"
    value {
      s: "NHWC"
    }
  }
}
node {
  name: "MobilenetV2/expanded_conv_9/expand/weights"
  op: "Const"
  attr {
    key: "dtype"
    value {
      type: DT_FLOAT
    }
  }
  attr {
    key: "value"
    value {
      tensor {
        dtype: DT_FLOAT
        tensor_shape {
          dim {
            size: 1
          }
          dim {
            size: 1
          }
          dim {
            size: 24
          }
          dim {
            size: 144
          }
        }
        tensor_content: "…"
      }
    }
  }
}
node {
  name: "MobilenetV2/expanded_conv_8/add"
  op: "Add"
  input: "MobilenetV2/expanded_conv_8/project/BatchNorm/FusedBatchNorm"
  input: "MobilenetV2/expanded_conv_7/add"
  attr {
    key: "T"
    value {
      type: DT_FLOAT
    }
  }
}
node {
  name: "MobilenetV2/expanded_conv_9/expand/Conv2D"
  op: "Conv2D"
  input: "MobilenetV2/expanded_conv_8/add"
  input: "MobilenetV2/expanded_conv_9/expand/weights"
  attr {
    key: "T"
    value {
      type: DT_FLOAT
    }
  }
  attr {
    key: "data_format"
    value {
      s: "NHWC"
    }
  }
  attr {
    key: "dilations"
    value {
      list {
        i: 1
        i: 1
        i: 1
        i: 1
      }
    }
  }
  attr {
    key: "padding"
    value {
      s: "SAME"
    }
  }
  attr {
    key: "strides"
    value {
      list {
        i: 1
        i: 1
        i: 1
        i: 1
      }
    }
  }
  attr {
    key: "use_cudnn_on_gpu"
    value {
      b: true
    }
  }
}
node {
  name: "MobilenetV2/expanded_conv_9/expand/Conv2D_bn_offset"
  op: "Const"
  attr {
    key: "dtype"
    value {
      type: DT_FLOAT
    }
  }
  attr {
    key: "value"
    value {
      tensor {
        dtype: DT_FLOAT
        tensor_shape {
          dim {
            size: 144
          }
        }
        tensor_content: "…"
      }
    }
  }
}
node {
  name: "MobilenetV2/expanded_conv_9/expand/BatchNorm/FusedBatchNorm"
  op: "BiasAdd"
  input: "MobilenetV2/expanded_conv_9/expand/Conv2D"
  input: "MobilenetV2/expanded_conv_9/expand/Conv2D_bn_offset"
  attr {
    key: "T"
    value {
      type: DT_FLOAT
    }
  }
  attr {
    key: "data_format"
    value {
      s: "NHWC"
    }
  }
}
node {
  name: "MobilenetV2/expanded_conv_9/expand/Relu6"
  op: "Relu6"
  input: "MobilenetV2/expanded_conv_9/expand/BatchNorm/FusedBatchNorm"
  attr {
    key: "T"
    value {
      type: DT_FLOAT
    }
  }
}
node {
  name: "MobilenetV2/expanded_conv_9/depthwise/depthwise"
  op: "DepthwiseConv2dNative"
  input: "MobilenetV2/expanded_conv_9/expand/Relu6"
  input: "MobilenetV2/expanded_conv_9/depthwise/depthwise_weights"
  attr {
    key: "T"
    value {
      type: DT_FLOAT
    }
  }
  attr {
    key: "data_format"
    value {
      s: "NHWC"
    }
  }
  attr {
    key: "dilations"
    value {
      list {
        i: 1
        i: 1
        i: 1
        i: 1
      }
    }
  }
  attr {
    key: "padding"
    value {
      s: "SAME"
    }
  }
  attr {
    key: "strides"
    value {
      list {
        i: 1
        i: 1
        i: 1
        i: 1
      }
    }
  }
}
node {
  name: "MobilenetV2/expanded_conv_9/depthwise/BatchNorm/FusedBatchNorm"
  op: "FusedBatchNorm"
  input: "MobilenetV2/expanded_conv_9/depthwise/depthwise"
  input: "MobilenetV2/expanded_conv_9/depthwise/BatchNorm/gamma"
  input: "MobilenetV2/expanded_conv_9/depthwise/BatchNorm/beta"
  input: "MobilenetV2/expanded_conv_9/depthwise/BatchNorm/moving_mean"
  input: "MobilenetV2/expanded_conv_9/depthwise/BatchNorm/moving_variance"
  attr {
    key: "T"
    value {
      type: DT_FLOAT
    }
  }
  attr {
    key: "data_format"
    value {
      s: "NHWC"
    }
  }
  attr {
    key: "epsilon"
    value {
      f: 0.0010000000475
    }
  }
  attr {
    key: "is_training"
    value {
      b: false
    }
  }
}
node {
  name: "MobilenetV2/expanded_conv_9/project/weights"
  op: "Const"
  attr {
    key: "dtype"
    value {
      type: DT_FLOAT
    }
  }
  attr {
    key: "value"
    value {
      tensor {
        dtype: DT_FLOAT
        tensor_shape {
          dim {
            size: 1
          }
          dim {
            size: 1
          }
          dim {
            size: 144
          }
          dim {
            size: 24
          }
        }
        tensor_content: "…"
      }
    }
  }
}
node {
  name: "MobilenetV2/expanded_conv_9/depthwise/Relu6"
  op: "Relu6"
  input: "MobilenetV2/expanded_conv_9/depthwise/BatchNorm/FusedBatchNorm"
  attr {
    key: "T"
    value {
      type: DT_FLOAT
    }
  }
}
node {
  name: "MobilenetV2/expanded_conv_9/project/Conv2D"
  op: "Conv2D"
  input: "MobilenetV2/expanded_conv_9/depthwise/Relu6"
  input: "MobilenetV2/expanded_conv_9/project/weights"
  attr {
    key: "T"
    value {
      type: DT_FLOAT
    }
  }
  attr {
    key: "data_format"
    value {
      s: "NHWC"
    }
  }
  attr {
    key: "dilations"
    value {
      list {
        i: 1
        i: 1
        i: 1
        i: 1
      }
    }
  }
  attr {
    key: "padding"
    value {
      s: "SAME"
    }
  }
  attr {
    key: "strides"
    value {
      list {
        i: 1
        i: 1
        i: 1
        i: 1
      }
    }
  }
  attr {
    key: "use_cudnn_on_gpu"
    value {
      b: true
    }
  }
}
node {
  name: "MobilenetV2/expanded_conv_9/project/Conv2D_bn_offset"
  op: "Const"
  attr {
    key: "dtype"
    value {
      type: DT_FLOAT
    }
  }
  attr {
    key: "value"
    value {
      tensor {
        dtype: DT_FLOAT
        tensor_shape {
          dim {
            size: 24
          }
        }
        tensor_content: "…"
      }
    }
  }
}
node {
  name: "MobilenetV2/expanded_conv_9/project/BatchNorm/FusedBatchNorm"
  op: "BiasAdd"
  input: "MobilenetV2/expanded_conv_9/project/Conv2D"
  input: "MobilenetV2/expanded_conv_9/project/Conv2D_bn_offset"
  attr {
    key: "T"
    value {
      type: DT_FLOAT
    }
  }
  attr {
    key: "data_format"
    value {
      s: "NHWC"
    }
  }
}
node {
  name: "MobilenetV2/expanded_conv_10/expand/weights"
  op: "Const"
  attr {
    key: "dtype"
    value {
      type: DT_FLOAT
    }
  }
  attr {
    key: "value"
    value {
      tensor {
        dtype: DT_FLOAT
        tensor_shape {
          dim {
            size: 1
          }
          dim {
            size: 1
          }
          dim {
            size: 24
          }
          dim {
            size: 144
          }
        }
        tensor_content: "…"
      }
    }
  }
}
node {
  name: "MobilenetV2/expanded_conv_9/add"
  op: "Add"
  input: "MobilenetV2/expanded_conv_9/project/BatchNorm/FusedBatchNorm"
  input: "MobilenetV2/expanded_conv_8/add"
  attr {
    key: "T"
    value {
      type: DT_FLOAT
    }
  }
}
node {
  name: "MobilenetV2/expanded_conv_10/expand/Conv2D"
  op: "Conv2D"
  input: "MobilenetV2/expanded_conv_9/add"
  input: "MobilenetV2/expanded_conv_10/expand/weights"
  attr {
    key: "T"
    value {
      type: DT_FLOAT
    }
  }
  attr {
    key: "data_format"
    value {
      s: "NHWC"
    }
  }
  attr {
    key: "dilations"
    value {
      list {
        i: 1
        i: 1
        i: 1
        i: 1
      }
    }
  }
  attr {
    key: "padding"
    value {
      s: "SAME"
    }
  }
  attr {
    key: "strides"
    value {
      list {
        i: 1
        i: 1
        i: 1
        i: 1
      }
    }
  }
  attr {
    key: "use_cudnn_on_gpu"
    value {
      b: true
    }
  }
}
node {
  name: "MobilenetV2/expanded_conv_10/expand/Conv2D_bn_offset"
  op: "Const"
  attr {
    key: "dtype"
    value {
      type: DT_FLOAT
    }
  }
  attr {
    key: "value"
    value {
      tensor {
        dtype: DT_FLOAT
        tensor_shape {
          dim {
            size: 144
          }
        }
        tensor_content: "…"
      }
    }
  }
}
node {
  name: "MobilenetV2/expanded_conv_10/expand/BatchNorm/FusedBatchNorm"
  op: "BiasAdd"
  input: "MobilenetV2/expanded_conv_10/expand/Conv2D"
  input: "MobilenetV2/expanded_conv_10/expand/Conv2D_bn_offset"
  attr {
    key: "T"
    value {
      type: DT_FLOAT
    }
  }
  attr {
    key: "data_format"
    value {
      s: "NHWC"
    }
  }
}
node {
  name: "MobilenetV2/expanded_conv_10/expand/Relu6"
  op: "Relu6"
  input: "MobilenetV2/expanded_conv_10/expand/BatchNorm/FusedBatchNorm"
  attr {
    key: "T"
    value {
      type: DT_FLOAT
    }
  }
}
node {
  name: "MobilenetV2/expanded_conv_10/depthwise/depthwise"
  op: "DepthwiseConv2dNative"
  input: "MobilenetV2/expanded_conv_10/expand/Relu6"
  input: "MobilenetV2/expanded_conv_10/depthwise/depthwise_weights"
  attr {
    key: "T"
    value {
      type: DT_FLOAT
    }
  }
  attr {
    key: "data_format"
    value {
      s: "NHWC"
    }
  }
  attr {
    key: "dilations"
    value {
      list {
        i: 1
        i: 1
        i: 1
        i: 1
      }
    }
  }
  attr {
    key: "padding"
    value {
      s: "SAME"
    }
  }
  attr {
    key: "strides"
    value {
      list {
        i: 1
        i: 1
        i: 1
        i: 1
      }
    }
  }
}
node {
  name: "MobilenetV2/expanded_conv_10/depthwise/BatchNorm/FusedBatchNorm"
  op: "FusedBatchNorm"
  input: "MobilenetV2/expanded_conv_10/depthwise/depthwise"
  input: "MobilenetV2/expanded_conv_10/depthwise/BatchNorm/gamma"
  input: "MobilenetV2/expanded_conv_10/depthwise/BatchNorm/beta"
  input: "MobilenetV2/expanded_conv_10/depthwise/BatchNorm/moving_mean"
  input: "MobilenetV2/expanded_conv_10/depthwise/BatchNorm/moving_variance"
  attr {
    key: "T"
    value {
      type: DT_FLOAT
    }
  }
  attr {
    key: "data_format"
    value {
      s: "NHWC"
    }
  }
  attr {
    key: "epsilon"
    value {
      f: 0.0010000000475
    }
  }
  attr {
    key: "is_training"
    value {
      b: false
    }
  }
}
node {
  name: "MobilenetV2/expanded_conv_10/project/weights"
  op: "Const"
  attr {
    key: "dtype"
    value {
      type: DT_FLOAT
    }
  }
  attr {
    key: "value"
    value {
      tensor {
        dtype: DT_FLOAT
        tensor_shape {
          dim {
            size: 1
          }
          dim {
            size: 1
          }
          dim {
            size: 144
          }
          dim {
            size: 32
          }
        }
        tensor_content: "…"
      }
    }
  }
}
node {
  name: "MobilenetV2/expanded_conv_10/depthwise/Relu6"
  op: "Relu6"
  input: "MobilenetV2/expanded_conv_10/depthwise/BatchNorm/FusedBatchNorm"
  attr {
    key: "T"
    value {
      type: DT_FLOAT
    }
  }
}
node {
  name: "MobilenetV2/expanded_conv_10/project/Conv2D"
  op: "Conv2D"
  input: "MobilenetV2/expanded_conv_10/depthwise/Relu6"
  input: "MobilenetV2/expanded_conv_10/project/weights"
  attr {
    key: "T"
    value {
      type: DT_FLOAT
    }
  }
  attr {
    key: "data_format"
    value {
      s: "NHWC"
    }
  }
  attr {
    key: "dilations"
    value {
      list {
        i: 1
        i: 1
        i: 1
        i: 1
      }
    }
  }
  attr {
    key: "padding"
    value {
      s: "SAME"
    }
  }
  attr {
    key: "strides"
    value {
      list {
        i: 1
        i: 1
        i: 1
        i: 1
      }
    }
  }
  attr {
    key: "use_cudnn_on_gpu"
    value {
      b: true
    }
  }
}
node {
  name: "MobilenetV2/expanded_conv_10/project/Conv2D_bn_offset"
  op: "Const"
  attr {
    key: "dtype"
    value {
      type: DT_FLOAT
    }
  }
  attr {
    key: "value"
    value {
      tensor {
        dtype: DT_FLOAT
        tensor_shape {
          dim {
            size: 32
          }
        }
        tensor_content: "…"
      }
    }
  }
}
node {
  name: "MobilenetV2/expanded_conv_11/expand/weights"
  op: "Const"
  attr {
    key: "dtype"
    value {
      type: DT_FLOAT
    }
  }
  attr {
    key: "value"
    value {
      tensor {
        dtype: DT_FLOAT
        tensor_shape {
          dim {
            size: 1
          }
          dim {
            size: 1
          }
          dim {
            size: 32
          }
          dim {
            size: 192
          }
        }
        tensor_content: "…"
      }
    }
  }
}
node {
  name: "MobilenetV2/expanded_conv_10/project/BatchNorm/FusedBatchNorm"
  op: "BiasAdd"
  input: "MobilenetV2/expanded_conv_10/project/Conv2D"
  input: "MobilenetV2/expanded_conv_10/project/Conv2D_bn_offset"
  attr {
    key: "T"
    value {
      type: DT_FLOAT
    }
  }
  attr {
    key: "data_format"
    value {
      s: "NHWC"
    }
  }
}
node {
  name: "MobilenetV2/expanded_conv_11/expand/Conv2D"
  op: "Conv2D"
  input: "MobilenetV2/expanded_conv_10/project/BatchNorm/FusedBatchNorm"
  input: "MobilenetV2/expanded_conv_11/expand/weights"
  attr {
    key: "T"
    value {
      type: DT_FLOAT
    }
  }
  attr {
    key: "data_format"
    value {
      s: "NHWC"
    }
  }
  attr {
    key: "dilations"
    value {
      list {
        i: 1
        i: 1
        i: 1
        i: 1
      }
    }
  }
  attr {
    key: "padding"
    value {
      s: "SAME"
    }
  }
  attr {
    key: "strides"
    value {
      list {
        i: 1
        i: 1
        i: 1
        i: 1
      }
    }
  }
  attr {
    key: "use_cudnn_on_gpu"
    value {
      b: true
    }
  }
}
node {
  name: "MobilenetV2/expanded_conv_11/expand/Conv2D_bn_offset"
  op: "Const"
  attr {
    key: "dtype"
    value {
      type: DT_FLOAT
    }
  }
  attr {
    key: "value"
    value {
      tensor {
        dtype: DT_FLOAT
        tensor_shape {
          dim {
            size: 192
          }
        }
        tensor_content: "…"
      }
    }
  }
}
node {
  name: "MobilenetV2/expanded_conv_11/expand/BatchNorm/FusedBatchNorm"
  op: "BiasAdd"
  input: "MobilenetV2/expanded_conv_11/expand/Conv2D"
  input: "MobilenetV2/expanded_conv_11/expand/Conv2D_bn_offset"
  attr {
    key: "T"
    value {
      type: DT_FLOAT
    }
  }
  attr {
    key: "data_format"
    value {
      s: "NHWC"
    }
  }
}
node {
  name: "MobilenetV2/expanded_conv_11/expand/Relu6"
  op: "Relu6"
  input: "MobilenetV2/expanded_conv_11/expand/BatchNorm/FusedBatchNorm"
  attr {
    key: "T"
    value {
      type: DT_FLOAT
    }
  }
}
node {
  name: "MobilenetV2/expanded_conv_11/depthwise/depthwise"
  op: "DepthwiseConv2dNative"
  input: "MobilenetV2/expanded_conv_11/expand/Relu6"
  input: "MobilenetV2/expanded_conv_11/depthwise/depthwise_weights"
  attr {
    key: "T"
    value {
      type: DT_FLOAT
    }
  }
  attr {
    key: "data_format"
    value {
      s: "NHWC"
    }
  }
  attr {
    key: "dilations"
    value {
      list {
        i: 1
        i: 1
        i: 1
        i: 1
      }
    }
  }
  attr {
    key: "padding"
    value {
      s: "SAME"
    }
  }
  attr {
    key: "strides"
    value {
      list {
        i: 1
        i: 1
        i: 1
        i: 1
      }
    }
  }
}
node {
  name: "MobilenetV2/expanded_conv_11/depthwise/BatchNorm/FusedBatchNorm"
  op: "FusedBatchNorm"
  input: "MobilenetV2/expanded_conv_11/depthwise/depthwise"
  input: "MobilenetV2/expanded_conv_11/depthwise/BatchNorm/gamma"
  input: "MobilenetV2/expanded_conv_11/depthwise/BatchNorm/beta"
  input: "MobilenetV2/expanded_conv_11/depthwise/BatchNorm/moving_mean"
  input: "MobilenetV2/expanded_conv_11/depthwise/BatchNorm/moving_variance"
  attr {
    key: "T"
    value {
      type: DT_FLOAT
    }
  }
  attr {
    key: "data_format"
    value {
      s: "NHWC"
    }
  }
  attr {
    key: "epsilon"
    value {
      f: 0.0010000000475
    }
  }
  attr {
    key: "is_training"
    value {
      b: false
    }
  }
}
node {
  name: "MobilenetV2/expanded_conv_11/project/weights"
  op: "Const"
  attr {
    key: "dtype"
    value {
      type: DT_FLOAT
    }
  }
  attr {
    key: "value"
    value {
      tensor {
        dtype: DT_FLOAT
        tensor_shape {
          dim {
            size: 1
          }
          dim {
            size: 1
          }
          dim {
            size: 192
          }
          dim {
            size: 32
          }
        }
        tensor_content: "…"
      }
    }
  }
}
node {
  name: "MobilenetV2/expanded_conv_11/depthwise/Relu6"
  op: "Relu6"
  input: "MobilenetV2/expanded_conv_11/depthwise/BatchNorm/FusedBatchNorm"
  attr {
    key: "T"
    value {
      type: DT_FLOAT
    }
  }
}
node {
  name: "MobilenetV2/expanded_conv_11/project/Conv2D"
  op: "Conv2D"
  input: "MobilenetV2/expanded_conv_11/depthwise/Relu6"
  input: "MobilenetV2/expanded_conv_11/project/weights"
  attr {
    key: "T"
    value {
      type: DT_FLOAT
    }
  }
  attr {
    key: "data_format"
    value {
      s: "NHWC"
    }
  }
  attr {
    key: "dilations"
    value {
      list {
        i: 1
        i: 1
        i: 1
        i: 1
      }
    }
  }
  attr {
    key: "padding"
    value {
      s: "SAME"
    }
  }
  attr {
    key: "strides"
    value {
      list {
        i: 1
        i: 1
        i: 1
        i: 1
      }
    }
  }
  attr {
    key: "use_cudnn_on_gpu"
    value {
      b: true
    }
  }
}
node {
  name: "MobilenetV2/expanded_conv_11/project/Conv2D_bn_offset"
  op: "Const"
  attr {
    key: "dtype"
    value {
      type: DT_FLOAT
    }
  }
  attr {
    key: "value"
    value {
      tensor {
        dtype: DT_FLOAT
        tensor_shape {
          dim {
            size: 32
          }
        }
        tensor_content: "…"
      }
    }
  }
}
node {
  name: "MobilenetV2/expanded_conv_11/project/BatchNorm/FusedBatchNorm"
  op: "BiasAdd"
  input: "MobilenetV2/expanded_conv_11/project/Conv2D"
  input: "MobilenetV2/expanded_conv_11/project/Conv2D_bn_offset"
  attr {
    key: "T"
    value {
      type: DT_FLOAT
    }
  }
  attr {
    key: "data_format"
    value {
      s: "NHWC"
    }
  }
}
node {
  name: "MobilenetV2/expanded_conv_12/expand/weights"
  op: "Const"
  attr {
    key: "dtype"
    value {
      type: DT_FLOAT
    }
  }
  attr {
    key: "value"
    value {
      tensor {
        dtype: DT_FLOAT
        tensor_shape {
          dim {
            size: 1
          }
          dim {
            size: 1
          }
          dim {
            size: 32
          }
          dim {
            size: 192
          }
        }
        tensor_content: "…"
      }
    }
  }
}
node {
  name: "MobilenetV2/expanded_conv_11/add"
  op: "Add"
  input: "MobilenetV2/expanded_conv_11/project/BatchNorm/FusedBatchNorm"
  input: "MobilenetV2/expanded_conv_10/project/BatchNorm/FusedBatchNorm"
  attr {
    key: "T"
    value {
      type: DT_FLOAT
    }
  }
}
node {
  name: "MobilenetV2/expanded_conv_12/expand/Conv2D"
  op: "Conv2D"
  input: "MobilenetV2/expanded_conv_11/add"
  input: "MobilenetV2/expanded_conv_12/expand/weights"
  attr {
    key: "T"
    value {
      type: DT_FLOAT
    }
  }
  attr {
    key: "data_format"
    value {
      s: "NHWC"
    }
  }
  attr {
    key: "dilations"
    value {
      list {
        i: 1
        i: 1
        i: 1
        i: 1
      }
    }
  }
  attr {
    key: "padding"
    value {
      s: "SAME"
    }
  }
  attr {
    key: "strides"
    value {
      list {
        i: 1
        i: 1
        i: 1
        i: 1
      }
    }
  }
  attr {
    key: "use_cudnn_on_gpu"
    value {
      b: true
    }
  }
}
node {
  name: "MobilenetV2/expanded_conv_12/expand/Conv2D_bn_offset"
  op: "Const"
  attr {
    key: "dtype"
    value {
      type: DT_FLOAT
    }
  }
  attr {
    key: "value"
    value {
      tensor {
        dtype: DT_FLOAT
        tensor_shape {
          dim {
            size: 192
          }
        }
        tensor_content: "…"
      }
    }
  }
}
node {
  name: "MobilenetV2/expanded_conv_12/expand/BatchNorm/FusedBatchNorm"
  op: "BiasAdd"
  input: "MobilenetV2/expanded_conv_12/expand/Conv2D"
  input: "MobilenetV2/expanded_conv_12/expand/Conv2D_bn_offset"
  attr {
    key: "T"
    value {
      type: DT_FLOAT
    }
  }
  attr {
    key: "data_format"
    value {
      s: "NHWC"
    }
  }
}
node {
  name: "MobilenetV2/expanded_conv_12/expand/Relu6"
  op: "Relu6"
  input: "MobilenetV2/expanded_conv_12/expand/BatchNorm/FusedBatchNorm"
  attr {
    key: "T"
    value {
      type: DT_FLOAT
    }
  }
}
node {
  name: "MobilenetV2/expanded_conv_12/depthwise/depthwise"
  op: "DepthwiseConv2dNative"
  input: "MobilenetV2/expanded_conv_12/expand/Relu6"
  input: "MobilenetV2/expanded_conv_12/depthwise/depthwise_weights"
  attr {
    key: "T"
    value {
      type: DT_FLOAT
    }
  }
  attr {
    key: "data_format"
    value {
      s: "NHWC"
    }
  }
  attr {
    key: "dilations"
    value {
      list {
        i: 1
        i: 1
        i: 1
        i: 1
      }
    }
  }
  attr {
    key: "padding"
    value {
      s: "SAME"
    }
  }
  attr {
    key: "strides"
    value {
      list {
        i: 1
        i: 1
        i: 1
        i: 1
      }
    }
  }
}
node {
  name: "MobilenetV2/expanded_conv_12/depthwise/BatchNorm/FusedBatchNorm"
  op: "FusedBatchNorm"
  input: "MobilenetV2/expanded_conv_12/depthwise/depthwise"
  input: "MobilenetV2/expanded_conv_12/depthwise/BatchNorm/gamma"
  input: "MobilenetV2/expanded_conv_12/depthwise/BatchNorm/beta"
  input: "MobilenetV2/expanded_conv_12/depthwise/BatchNorm/moving_mean"
  input: "MobilenetV2/expanded_conv_12/depthwise/BatchNorm/moving_variance"
  attr {
    key: "T"
    value {
      type: DT_FLOAT
    }
  }
  attr {
    key: "data_format"
    value {
      s: "NHWC"
    }
  }
  attr {
    key: "epsilon"
    value {
      f: 0.0010000000475
    }
  }
  attr {
    key: "is_training"
    value {
      b: false
    }
  }
}
node {
  name: "MobilenetV2/expanded_conv_12/project/weights"
  op: "Const"
  attr {
    key: "dtype"
    value {
      type: DT_FLOAT
    }
  }
  attr {
    key: "value"
    value {
      tensor {
        dtype: DT_FLOAT
        tensor_shape {
          dim {
            size: 1
          }
          dim {
            size: 1
          }
          dim {
            size: 192
          }
          dim {
            size: 32
          }
        }
        tensor_content: "…"
      }
    }
  }
}
node {
  name: "MobilenetV2/expanded_conv_12/depthwise/Relu6"
  op: "Relu6"
  input: "MobilenetV2/expanded_conv_12/depthwise/BatchNorm/FusedBatchNorm"
  attr {
    key: "T"
    value {
      type: DT_FLOAT
    }
  }
}
node {
  name: "MobilenetV2/expanded_conv_12/project/Conv2D"
  op: "Conv2D"
  input: "MobilenetV2/expanded_conv_12/depthwise/Relu6"
  input: "MobilenetV2/expanded_conv_12/project/weights"
  attr {
    key: "T"
    value {
      type: DT_FLOAT
    }
  }
  attr {
    key: "data_format"
    value {
      s: "NHWC"
    }
  }
  attr {
    key: "dilations"
    value {
      list {
        i: 1
        i: 1
        i: 1
        i: 1
      }
    }
  }
  attr {
    key: "padding"
    value {
      s: "SAME"
    }
  }
  attr {
    key: "strides"
    value {
      list {
        i: 1
        i: 1
        i: 1
        i: 1
      }
    }
  }
  attr {
    key: "use_cudnn_on_gpu"
    value {
      b: true
    }
  }
}
node {
  name: "MobilenetV2/expanded_conv_12/project/Conv2D_bn_offset"
  op: "Const"
  attr {
    key: "dtype"
    value {
      type: DT_FLOAT
    }
  }
  attr {
    key: "value"
    value {
      tensor {
        dtype: DT_FLOAT
        tensor_shape {
          dim {
            size: 32
          }
        }
        tensor_content: "…"
      }
    }
  }
}
node {
  name: "MobilenetV2/expanded_conv_12/project/BatchNorm/FusedBatchNorm"
  op: "BiasAdd"
  input: "MobilenetV2/expanded_conv_12/project/Conv2D"
  input: "MobilenetV2/expanded_conv_12/project/Conv2D_bn_offset"
  attr {
    key: "T"
    value {
      type: DT_FLOAT
    }
  }
  attr {
    key: "data_format"
    value {
      s: "NHWC"
    }
  }
}
node {
  name: "MobilenetV2/Decoder/skip_1_32x32_bridge/weights"
  op: "Const"
  attr {
    key: "dtype"
    value {
      type: DT_FLOAT
    }
  }
  attr {
    key: "value"
    value {
      tensor {
        dtype: DT_FLOAT
        tensor_shape {
          dim {
            size: 3
          }
          dim {
            size: 3
          }
          dim {
            size: 32
          }
          dim {
            size: 8
          }
        }
        tensor_content: "…"
      }
    }
  }
}
node {
  name: "MobilenetV2/expanded_conv_12/add"
  op: "Add"
  input: "MobilenetV2/expanded_conv_12/project/BatchNorm/FusedBatchNorm"
  input: "MobilenetV2/expanded_conv_11/add"
  attr {
    key: "T"
    value {
      type: DT_FLOAT
    }
  }
}
node {
  name: "MobilenetV2/Decoder/skip_1_32x32_bridge/Conv2D"
  op: "Conv2D"
  input: "MobilenetV2/expanded_conv_12/add"
  input: "MobilenetV2/Decoder/skip_1_32x32_bridge/weights"
  attr {
    key: "T"
    value {
      type: DT_FLOAT
    }
  }
  attr {
    key: "data_format"
    value {
      s: "NHWC"
    }
  }
  attr {
    key: "dilations"
    value {
      list {
        i: 1
        i: 1
        i: 1
        i: 1
      }
    }
  }
  attr {
    key: "padding"
    value {
      s: "SAME"
    }
  }
  attr {
    key: "strides"
    value {
      list {
        i: 1
        i: 1
        i: 1
        i: 1
      }
    }
  }
  attr {
    key: "use_cudnn_on_gpu"
    value {
      b: true
    }
  }
}
node {
  name: "MobilenetV2/Decoder/skip_1_32x32_bridge/Conv2D_bn_offset"
  op: "Const"
  attr {
    key: "dtype"
    value {
      type: DT_FLOAT
    }
  }
  attr {
    key: "value"
    value {
      tensor {
        dtype: DT_FLOAT
        tensor_shape {
          dim {
            size: 8
          }
        }
        tensor_content: "\236\026a=\247{s\275`\366\273\274g>\353=>\255l\275\334Y\302=\020\304?\273R:\034\275"
      }
    }
  }
}
node {
  name: "MobilenetV2/Decoder/skip_1_32x32_bridge/BatchNorm/FusedBatchNorm"
  op: "BiasAdd"
  input: "MobilenetV2/Decoder/skip_1_32x32_bridge/Conv2D"
  input: "MobilenetV2/Decoder/skip_1_32x32_bridge/Conv2D_bn_offset"
  attr {
    key: "T"
    value {
      type: DT_FLOAT
    }
  }
  attr {
    key: "data_format"
    value {
      s: "NHWC"
    }
  }
}
node {
  name: "MobilenetV2/expanded_conv_13/expand/weights"
  op: "Const"
  attr {
    key: "dtype"
    value {
      type: DT_FLOAT
    }
  }
  attr {
    key: "value"
    value {
      tensor {
        dtype: DT_FLOAT
        tensor_shape {
          dim {
            size: 1
          }
          dim {
            size: 1
          }
          dim {
            size: 32
          }
          dim {
            size: 192
          }
        }
        tensor_content: "…"
      }
    }
  }
}
node {
  name: "MobilenetV2/expanded_conv_13/expand/Conv2D"
  op: "Conv2D"
  input: "MobilenetV2/expanded_conv_12/add"
  input: "MobilenetV2/expanded_conv_13/expand/weights"
  attr {
    key: "T"
    value {
      type: DT_FLOAT
    }
  }
  attr {
    key: "data_format"
    value {
      s: "NHWC"
    }
  }
  attr {
    key: "dilations"
    value {
      list {
        i: 1
        i: 1
        i: 1
        i: 1
      }
    }
  }
  attr {
    key: "padding"
    value {
      s: "SAME"
    }
  }
  attr {
    key: "strides"
    value {
      list {
        i: 1
        i: 1
        i: 1
        i: 1
      }
    }
  }
  attr {
    key: "use_cudnn_on_gpu"
    value {
      b: true
    }
  }
}
node {
  name: "MobilenetV2/expanded_conv_13/expand/Conv2D_bn_offset"
  op: "Const"
  attr {
    key: "dtype"
    value {
      type: DT_FLOAT
    }
  }
  attr {
    key: "value"
    value {
      tensor {
        dtype: DT_FLOAT
        tensor_shape {
          dim {
            size: 192
          }
        }
        tensor_content: "…"
      }
    }
  }
}
node {
  name: "MobilenetV2/expanded_conv_13/expand/BatchNorm/FusedBatchNorm"
  op: "BiasAdd"
  input: "MobilenetV2/expanded_conv_13/expand/Conv2D"
  input: "MobilenetV2/expanded_conv_13/expand/Conv2D_bn_offset"
  attr {
    key: "T"
    value {
      type: DT_FLOAT
    }
  }
  attr {
    key: "data_format"
    value {
      s: "NHWC"
    }
  }
}
node {
  name: "MobilenetV2/expanded_conv_13/expand/Relu6"
  op: "Relu6"
  input: "MobilenetV2/expanded_conv_13/expand/BatchNorm/FusedBatchNorm"
  attr {
    key: "T"
    value {
      type: DT_FLOAT
    }
  }
}
node {
  name: "MobilenetV2/expanded_conv_13/depthwise/depthwise"
  op: "DepthwiseConv2dNative"
  input: "MobilenetV2/expanded_conv_13/expand/Relu6"
  input: "MobilenetV2/expanded_conv_13/depthwise/depthwise_weights"
  attr {
    key: "T"
    value {
      type: DT_FLOAT
    }
  }
  attr {
    key: "data_format"
    value {
      s: "NHWC"
    }
  }
  attr {
    key: "dilations"
    value {
      list {
        i: 1
        i: 1
        i: 1
        i: 1
      }
    }
  }
  attr {
    key: "padding"
    value {
      s: "SAME"
    }
  }
  attr {
    key: "strides"
    value {
      list {
        i: 1
        i: 2
        i: 2
        i: 1
      }
    }
  }
}
node {
  name: "MobilenetV2/expanded_conv_13/depthwise/BatchNorm/FusedBatchNorm"
  op: "FusedBatchNorm"
  input: "MobilenetV2/expanded_conv_13/depthwise/depthwise"
  input: "MobilenetV2/expanded_conv_13/depthwise/BatchNorm/gamma"
  input: "MobilenetV2/expanded_conv_13/depthwise/BatchNorm/beta"
  input: "MobilenetV2/expanded_conv_13/depthwise/BatchNorm/moving_mean"
  input: "MobilenetV2/expanded_conv_13/depthwise/BatchNorm/moving_variance"
  attr {
    key: "T"
    value {
      type: DT_FLOAT
    }
  }
  attr {
    key: "data_format"
    value {
      s: "NHWC"
    }
  }
  attr {
    key: "epsilon"
    value {
      f: 0.0010000000475
    }
  }
  attr {
    key: "is_training"
    value {
      b: false
    }
  }
}
node {
  name: "MobilenetV2/expanded_conv_13/project/weights"
  op: "Const"
  attr {
    key: "dtype"
    value {
      type: DT_FLOAT
    }
  }
  attr {
    key: "value"
    value {
      tensor {
        dtype: DT_FLOAT
        tensor_shape {
          dim {
            size: 1
          }
          dim {
            size: 1
          }
          dim {
            size: 192
          }
          dim {
            size: 56
          }
        }
        tensor_content: "…"
      }
    }
  }
}
node {
  name: "MobilenetV2/expanded_conv_13/depthwise/Relu6"
  op: "Relu6"
  input: "MobilenetV2/expanded_conv_13/depthwise/BatchNorm/FusedBatchNorm"
  attr {
    key: "T"
    value {
      type: DT_FLOAT
    }
  }
}
node {
  name: "MobilenetV2/expanded_conv_13/project/Conv2D"
  op: "Conv2D"
  input: "MobilenetV2/expanded_conv_13/depthwise/Relu6"
  input: "MobilenetV2/expanded_conv_13/project/weights"
  attr {
    key: "T"
    value {
      type: DT_FLOAT
    }
  }
  attr {
    key: "data_format"
    value {
      s: "NHWC"
    }
  }
  attr {
    key: "dilations"
    value {
      list {
        i: 1
        i: 1
        i: 1
        i: 1
      }
    }
  }
  attr {
    key: "padding"
    value {
      s: "SAME"
    }
  }
  attr {
    key: "strides"
    value {
      list {
        i: 1
        i: 1
        i: 1
        i: 1
      }
    }
  }
  attr {
    key: "use_cudnn_on_gpu"
    value {
      b: true
    }
  }
}
node {
  name: "MobilenetV2/expanded_conv_13/project/Conv2D_bn_offset"
  op: "Const"
  attr {
    key: "dtype"
    value {
      type: DT_FLOAT
    }
  }
  attr {
    key: "value"
    value {
      tensor {
        dtype: DT_FLOAT
        tensor_shape {
          dim {
            size: 56
          }
        }
        tensor_content: "…"
      }
    }
  }
}
node {
  name: "MobilenetV2/expanded_conv_14/expand/weights"
  op: "Const"
  attr {
    key: "dtype"
    value {
      type: DT_FLOAT
    }
  }
  attr {
    key: "value"
    value {
      tensor {
        dtype: DT_FLOAT
        tensor_shape {
          dim {
            size: 1
          }
          dim {
            size: 1
          }
          dim {
            size: 56
          }
          dim {
            size: 336
          }
        }
        tensor_content: "…"
      }
    }
  }
}
node {
  name: "MobilenetV2/expanded_conv_13/project/BatchNorm/FusedBatchNorm"
  op: "BiasAdd"
  input: "MobilenetV2/expanded_conv_13/project/Conv2D"
  input: "MobilenetV2/expanded_conv_13/project/Conv2D_bn_offset"
  attr {
    key: "T"
    value {
      type: DT_FLOAT
    }
  }
  attr {
    key: "data_format"
    value {
      s: "NHWC"
    }
  }
}
node {
  name: "MobilenetV2/expanded_conv_14/expand/Conv2D"
  op: "Conv2D"
  input: "MobilenetV2/expanded_conv_13/project/BatchNorm/FusedBatchNorm"
  input: "MobilenetV2/expanded_conv_14/expand/weights"
  attr {
    key: "T"
    value {
      type: DT_FLOAT
    }
  }
  attr {
    key: "data_format"
    value {
      s: "NHWC"
    }
  }
  attr {
    key: "dilations"
    value {
      list {
        i: 1
        i: 1
        i: 1
        i: 1
      }
    }
  }
  attr {
    key: "padding"
    value {
      s: "SAME"
    }
  }
  attr {
    key: "strides"
    value {
      list {
        i: 1
        i: 1
        i: 1
        i: 1
      }
    }
  }
  attr {
    key: "use_cudnn_on_gpu"
    value {
      b: true
    }
  }
}
node {
  name: "MobilenetV2/expanded_conv_14/expand/Conv2D_bn_offset"
  op: "Const"
  attr {
    key: "dtype"
    value {
      type: DT_FLOAT
    }
  }
  attr {
    key: "value"
    value {
      tensor {
        dtype: DT_FLOAT
        tensor_shape {
          dim {
            size: 336
          }
        }
        tensor_content: "…"
      }
    }
  }
}
node {
  name: "MobilenetV2/expanded_conv_14/expand/BatchNorm/FusedBatchNorm"
  op: "BiasAdd"
  input: "MobilenetV2/expanded_conv_14/expand/Conv2D"
  input: "MobilenetV2/expanded_conv_14/expand/Conv2D_bn_offset"
  attr {
    key: "T"
    value {
      type: DT_FLOAT
    }
  }
  attr {
    key: "data_format"
    value {
      s: "NHWC"
    }
  }
}
node {
  name: "MobilenetV2/expanded_conv_14/expand/Relu6"
  op: "Relu6"
  input: "MobilenetV2/expanded_conv_14/expand/BatchNorm/FusedBatchNorm"
  attr {
    key: "T"
    value {
      type: DT_FLOAT
    }
  }
}
node {
  name: "MobilenetV2/expanded_conv_14/depthwise/depthwise"
  op: "DepthwiseConv2dNative"
  input: "MobilenetV2/expanded_conv_14/expand/Relu6"
  input: "MobilenetV2/expanded_conv_14/depthwise/depthwise_weights"
  attr {
    key: "T"
    value {
      type: DT_FLOAT
    }
  }
  attr {
    key: "data_format"
    value {
      s: "NHWC"
    }
  }
  attr {
    key: "dilations"
    value {
      list {
        i: 1
        i: 1
        i: 1
        i: 1
      }
    }
  }
  attr {
    key: "padding"
    value {
      s: "SAME"
    }
  }
  attr {
    key: "strides"
    value {
      list {
        i: 1
        i: 1
        i: 1
        i: 1
      }
    }
  }
}
node {
  name: "MobilenetV2/expanded_conv_14/depthwise/BatchNorm/FusedBatchNorm"
  op: "FusedBatchNorm"
  input: "MobilenetV2/expanded_conv_14/depthwise/depthwise"
  input: "MobilenetV2/expanded_conv_14/depthwise/BatchNorm/gamma"
  input: "MobilenetV2/expanded_conv_14/depthwise/BatchNorm/beta"
  input: "MobilenetV2/expanded_conv_14/depthwise/BatchNorm/moving_mean"
  input: "MobilenetV2/expanded_conv_14/depthwise/BatchNorm/moving_variance"
  attr {
    key: "T"
    value {
      type: DT_FLOAT
    }
  }
  attr {
    key: "data_format"
    value {
      s: "NHWC"
    }
  }
  attr {
    key: "epsilon"
    value {
      f: 0.0010000000475
    }
  }
  attr {
    key: "is_training"
    value {
      b: false
    }
  }
}
node {
  name: "MobilenetV2/expanded_conv_14/project/weights"
  op: "Const"
  attr {
    key: "dtype"
    value {
      type: DT_FLOAT
    }
  }
  attr {
    key: "value"
    value {
      tensor {
        dtype: DT_FLOAT
        tensor_shape {
          dim {
            size: 1
          }
          dim {
            size: 1
          }
          dim {
            size: 336
          }
          dim {
            size: 56
          }
        }
        tensor_content: "…"
      }
    }
  }
}
node {
  name: "MobilenetV2/expanded_conv_14/depthwise/Relu6"
  op: "Relu6"
  input: "MobilenetV2/expanded_conv_14/depthwise/BatchNorm/FusedBatchNorm"
  attr {
    key: "T"
    value {
      type: DT_FLOAT
    }
  }
}
node {
  name: "MobilenetV2/expanded_conv_14/project/Conv2D"
  op: "Conv2D"
  input: "MobilenetV2/expanded_conv_14/depthwise/Relu6"
  input: "MobilenetV2/expanded_conv_14/project/weights"
  attr {
    key: "T"
    value {
      type: DT_FLOAT
    }
  }
  attr {
    key: "data_format"
    value {
      s: "NHWC"
    }
  }
  attr {
    key: "dilations"
    value {
      list {
        i: 1
        i: 1
        i: 1
        i: 1
      }
    }
  }
  attr {
    key: "padding"
    value {
      s: "SAME"
    }
  }
  attr {
    key: "strides"
    value {
      list {
        i: 1
        i: 1
        i: 1
        i: 1
      }
    }
  }
  attr {
    key: "use_cudnn_on_gpu"
    value {
      b: true
    }
  }
}
node {
  name: "MobilenetV2/expanded_conv_14/project/Conv2D_bn_offset"
  op: "Const"
  attr {
    key: "dtype"
    value {
      type: DT_FLOAT
    }
  }
  attr {
    key: "value"
    value {
      tensor {
        dtype: DT_FLOAT
        tensor_shape {
          dim {
            size: 56
          }
        }
        tensor_content: "…"
      }
    }
  }
}
node {
  name: "MobilenetV2/expanded_conv_14/project/BatchNorm/FusedBatchNorm"
  op: "BiasAdd"
  input: "MobilenetV2/expanded_conv_14/project/Conv2D"
  input: "MobilenetV2/expanded_conv_14/project/Conv2D_bn_offset"
  attr {
    key: "T"
    value {
      type: DT_FLOAT
    }
  }
  attr {
    key: "data_format"
    value {
      s: "NHWC"
    }
  }
}
node {
  name: "MobilenetV2/expanded_conv_15/expand/weights"
  op: "Const"
  attr {
    key: "dtype"
    value {
      type: DT_FLOAT
    }
  }
  attr {
    key: "value"
    value {
      tensor {
        dtype: DT_FLOAT
        tensor_shape {
          dim {
            size: 1
          }
          dim {
            size: 1
          }
          dim {
            size: 56
          }
          dim {
            size: 336
          }
        }
        tensor_content: "…"
      }
    }
  }
}
node {
  name: "MobilenetV2/expanded_conv_14/add"
  op: "Add"
  input: "MobilenetV2/expanded_conv_14/project/BatchNorm/FusedBatchNorm"
  input: "MobilenetV2/expanded_conv_13/project/BatchNorm/FusedBatchNorm"
  attr {
    key: "T"
    value {
      type: DT_FLOAT
    }
  }
}
node {
  name: "MobilenetV2/expanded_conv_15/expand/Conv2D"
  op: "Conv2D"
  input: "MobilenetV2/expanded_conv_14/add"
  input: "MobilenetV2/expanded_conv_15/expand/weights"
  attr {
    key: "T"
    value {
      type: DT_FLOAT
    }
  }
  attr {
    key: "data_format"
    value {
      s: "NHWC"
    }
  }
  attr {
    key: "dilations"
    value {
      list {
        i: 1
        i: 1
        i: 1
        i: 1
      }
    }
  }
  attr {
    key: "padding"
    value {
      s: "SAME"
    }
  }
  attr {
    key: "strides"
    value {
      list {
        i: 1
        i: 1
        i: 1
        i: 1
      }
    }
  }
  attr {
    key: "use_cudnn_on_gpu"
    value {
      b: true
    }
  }
}
node {
  name: "MobilenetV2/expanded_conv_15/expand/Conv2D_bn_offset"
  op: "Const"
  attr {
    key: "dtype"
    value {
      type: DT_FLOAT
    }
  }
  attr {
    key: "value"
    value {
      tensor {
        dtype: DT_FLOAT
        tensor_shape {
          dim {
            size: 336
          }
        }
        tensor_content: "…"
      }
    }
  }
}
node {
  name: "MobilenetV2/expanded_conv_15/expand/BatchNorm/FusedBatchNorm"
  op: "BiasAdd"
  input: "MobilenetV2/expanded_conv_15/expand/Conv2D"
  input: "MobilenetV2/expanded_conv_15/expand/Conv2D_bn_offset"
  attr {
    key: "T"
    value {
      type: DT_FLOAT
    }
  }
  attr {
    key: "data_format"
    value {
      s: "NHWC"
    }
  }
}
node {
  name: "MobilenetV2/expanded_conv_15/expand/Relu6"
  op: "Relu6"
  input: "MobilenetV2/expanded_conv_15/expand/BatchNorm/FusedBatchNorm"
  attr {
    key: "T"
    value {
      type: DT_FLOAT
    }
  }
}
node {
  name: "MobilenetV2/expanded_conv_15/depthwise/depthwise"
  op: "DepthwiseConv2dNative"
  input: "MobilenetV2/expanded_conv_15/expand/Relu6"
  input: "MobilenetV2/expanded_conv_15/depthwise/depthwise_weights"
  attr {
    key: "T"
    value {
      type: DT_FLOAT
    }
  }
  attr {
    key: "data_format"
    value {
      s: "NHWC"
    }
  }
  attr {
    key: "dilations"
    value {
      list {
        i: 1
        i: 1
        i: 1
        i: 1
      }
    }
  }
  attr {
    key: "padding"
    value {
      s: "SAME"
    }
  }
  attr {
    key: "strides"
    value {
      list {
        i: 1
        i: 1
        i: 1
        i: 1
      }
    }
  }
}
node {
  name: "MobilenetV2/expanded_conv_15/depthwise/BatchNorm/FusedBatchNorm"
  op: "FusedBatchNorm"
  input: "MobilenetV2/expanded_conv_15/depthwise/depthwise"
  input: "MobilenetV2/expanded_conv_15/depthwise/BatchNorm/gamma"
  input: "MobilenetV2/expanded_conv_15/depthwise/BatchNorm/beta"
  input: "MobilenetV2/expanded_conv_15/depthwise/BatchNorm/moving_mean"
  input: "MobilenetV2/expanded_conv_15/depthwise/BatchNorm/moving_variance"
  attr {
    key: "T"
    value {
      type: DT_FLOAT
    }
  }
  attr {
    key: "data_format"
    value {
      s: "NHWC"
    }
  }
  attr {
    key: "epsilon"
    value {
      f: 0.0010000000475
    }
  }
  attr {
    key: "is_training"
    value {
      b: false
    }
  }
}
node {
  name: "MobilenetV2/expanded_conv_15/project/weights"
  op: "Const"
  attr {
    key: "dtype"
    value {
      type: DT_FLOAT
    }
  }
  attr {
    key: "value"
    value {
      tensor {
        dtype: DT_FLOAT
        tensor_shape {
          dim {
            size: 1
          }
          dim {
            size: 1
          }
          dim {
            size: 336
          }
          dim {
            size: 56
          }
        }
        tensor_content: "…"
      }
    }
  }
}
node {
  name: "MobilenetV2/expanded_conv_15/depthwise/Relu6"
  op: "Relu6"
  input: "MobilenetV2/expanded_conv_15/depthwise/BatchNorm/FusedBatchNorm"
  attr {
    key: "T"
    value {
      type: DT_FLOAT
    }
  }
}
node {
  name: "MobilenetV2/expanded_conv_15/project/Conv2D"
  op: "Conv2D"
  input: "MobilenetV2/expanded_conv_15/depthwise/Relu6"
  input: "MobilenetV2/expanded_conv_15/project/weights"
  attr {
    key: "T"
    value {
      type: DT_FLOAT
    }
  }
  attr {
    key: "data_format"
    value {
      s: "NHWC"
    }
  }
  attr {
    key: "dilations"
    value {
      list {
        i: 1
        i: 1
        i: 1
        i: 1
      }
    }
  }
  attr {
    key: "padding"
    value {
      s: "SAME"
    }
  }
  attr {
    key: "strides"
    value {
      list {
        i: 1
        i: 1
        i: 1
        i: 1
      }
    }
  }
  attr {
    key: "use_cudnn_on_gpu"
    value {
      b: true
    }
  }
}
node {
  name: "MobilenetV2/expanded_conv_15/project/Conv2D_bn_offset"
  op: "Const"
  attr {
    key: "dtype"
    value {
      type: DT_FLOAT
    }
  }
  attr {
    key: "value"
    value {
      tensor {
        dtype: DT_FLOAT
        tensor_shape {
          dim {
            size: 56
          }
        }
        tensor_content: "…"
      }
    }
  }
}
node {
  name: "MobilenetV2/expanded_conv_15/project/BatchNorm/FusedBatchNorm"
  op: "BiasAdd"
  input: "MobilenetV2/expanded_conv_15/project/Conv2D"
  input: "MobilenetV2/expanded_conv_15/project/Conv2D_bn_offset"
  attr {
    key: "T"
    value {
      type: DT_FLOAT
    }
  }
  attr {
    key: "data_format"
    value {
      s: "NHWC"
    }
  }
}
node {
  name: "MobilenetV2/expanded_conv_16/expand/weights"
  op: "Const"
  attr {
    key: "dtype"
    value {
      type: DT_FLOAT
    }
  }
  attr {
    key: "value"
    value {
      tensor {
        dtype: DT_FLOAT
        tensor_shape {
          dim {
            size: 1
          }
          dim {
            size: 1
          }
          dim {
            size: 56
          }
          dim {
            size: 336
          }
        }
        tensor_content: "…"
      }
    }
  }
}
node {
  name: "MobilenetV2/expanded_conv_15/add"
  op: "Add"
  input: "MobilenetV2/expanded_conv_15/project/BatchNorm/FusedBatchNorm"
  input: "MobilenetV2/expanded_conv_14/add"
  attr {
    key: "T"
    value {
      type: DT_FLOAT
    }
  }
}
node {
  name: "MobilenetV2/expanded_conv_16/expand/Conv2D"
  op: "Conv2D"
  input: "MobilenetV2/expanded_conv_15/add"
  input: "MobilenetV2/expanded_conv_16/expand/weights"
  attr {
    key: "T"
    value {
      type: DT_FLOAT
    }
  }
  attr {
    key: "data_format"
    value {
      s: "NHWC"
    }
  }
  attr {
    key: "dilations"
    value {
      list {
        i: 1
        i: 1
        i: 1
        i: 1
      }
    }
  }
  attr {
    key: "padding"
    value {
      s: "SAME"
    }
  }
  attr {
    key: "strides"
    value {
      list {
        i: 1
        i: 1
        i: 1
        i: 1
      }
    }
  }
  attr {
    key: "use_cudnn_on_gpu"
    value {
      b: true
    }
  }
}
node {
  name: "MobilenetV2/expanded_conv_16/expand/Conv2D_bn_offset"
  op: "Const"
  attr {
    key: "dtype"
    value {
      type: DT_FLOAT
    }
  }
  attr {
    key: "value"
    value {
      tensor {
        dtype: DT_FLOAT
        tensor_shape {
          dim {
            size: 336
          }
        }
        tensor_content: "…"
      }
    }
  }
}
node {
  name: "MobilenetV2/expanded_conv_16/expand/BatchNorm/FusedBatchNorm"
  op: "BiasAdd"
  input: "MobilenetV2/expanded_conv_16/expand/Conv2D"
  input: "MobilenetV2/expanded_conv_16/expand/Conv2D_bn_offset"
  attr {
    key: "T"
    value {
      type: DT_FLOAT
    }
  }
  attr {
    key: "data_format"
    value {
      s: "NHWC"
    }
  }
}
node {
  name: "MobilenetV2/expanded_conv_16/expand/Relu6"
  op: "Relu6"
  input: "MobilenetV2/expanded_conv_16/expand/BatchNorm/FusedBatchNorm"
  attr {
    key: "T"
    value {
      type: DT_FLOAT
    }
  }
}
node {
  name: "MobilenetV2/expanded_conv_16/depthwise/depthwise"
  op: "DepthwiseConv2dNative"
  input: "MobilenetV2/expanded_conv_16/expand/Relu6"
  input: "MobilenetV2/expanded_conv_16/depthwise/depthwise_weights"
  attr {
    key: "T"
    value {
      type: DT_FLOAT
    }
  }
  attr {
    key: "data_format"
    value {
      s: "NHWC"
    }
  }
  attr {
    key: "dilations"
    value {
      list {
        i: 1
        i: 1
        i: 1
        i: 1
      }
    }
  }
  attr {
    key: "padding"
    value {
      s: "SAME"
    }
  }
  attr {
    key: "strides"
    value {
      list {
        i: 1
        i: 1
        i: 1
        i: 1
      }
    }
  }
}
node {
  name: "MobilenetV2/expanded_conv_16/depthwise/BatchNorm/FusedBatchNorm"
  op: "FusedBatchNorm"
  input: "MobilenetV2/expanded_conv_16/depthwise/depthwise"
  input: "MobilenetV2/expanded_conv_16/depthwise/BatchNorm/gamma"
  input: "MobilenetV2/expanded_conv_16/depthwise/BatchNorm/beta"
  input: "MobilenetV2/expanded_conv_16/depthwise/BatchNorm/moving_mean"
  input: "MobilenetV2/expanded_conv_16/depthwise/BatchNorm/moving_variance"
  attr {
    key: "T"
    value {
      type: DT_FLOAT
    }
  }
  attr {
    key: "data_format"
    value {
      s: "NHWC"
    }
  }
  attr {
    key: "epsilon"
    value {
      f: 0.0010000000475
    }
  }
  attr {
    key: "is_training"
    value {
      b: false
    }
  }
}
node {
  name: "MobilenetV2/expanded_conv_16/project/weights"
  op: "Const"
  attr {
    key: "dtype"
    value {
      type: DT_FLOAT
    }
  }
  attr {
    key: "value"
    value {
      tensor {
        dtype: DT_FLOAT
        tensor_shape {
          dim {
            size: 1
          }
          dim {
            size: 1
          }
          dim {
            size: 336
          }
          dim {
            size: 112
          }
        }
        tensor_content: "…"
      }
    }
  }
}
node {
  name: "MobilenetV2/expanded_conv_16/depthwise/Relu6"
  op: "Relu6"
  input: "MobilenetV2/expanded_conv_16/depthwise/BatchNorm/FusedBatchNorm"
  attr {
    key: "T"
    value {
      type: DT_FLOAT
    }
  }
}
node {
  name: "MobilenetV2/expanded_conv_16/project/Conv2D"
  op: "Conv2D"
  input: "MobilenetV2/expanded_conv_16/depthwise/Relu6"
  input: "MobilenetV2/expanded_conv_16/project/weights"
  attr {
    key: "T"
    value {
      type: DT_FLOAT
    }
  }
  attr {
    key: "data_format"
    value {
      s: "NHWC"
    }
  }
  attr {
    key: "dilations"
    value {
      list {
        i: 1
        i: 1
        i: 1
        i: 1
      }
    }
  }
  attr {
    key: "padding"
    value {
      s: "SAME"
    }
  }
  attr {
    key: "strides"
    value {
      list {
        i: 1
        i: 1
        i: 1
        i: 1
      }
    }
  }
  attr {
    key: "use_cudnn_on_gpu"
    value {
      b: true
    }
  }
}
node {
  name: "MobilenetV2/expanded_conv_16/project/Conv2D_bn_offset"
  op: "Const"
  attr {
    key: "dtype"
    value {
      type: DT_FLOAT
    }
  }
  attr {
    key: "value"
    value {
      tensor {
        dtype: DT_FLOAT
        tensor_shape {
          dim {
            size: 112
          }
        }
        tensor_content: "…"
      }
    }
  }
}
node {
  name: "MobilenetV2/Conv_1/weights"
  op: "Const"
  attr {
    key: "dtype"
    value {
      type: DT_FLOAT
    }
  }
  attr {
    key: "value"
    value {
      tensor {
        dtype: DT_FLOAT
        tensor_shape {
          dim {
            size: 3
          }
          dim {
            size: 3
          }
          dim {
            size: 112
          }
          dim {
            size: 64
          }
        }
        tensor_content: "…"
      }
    }
  }
}
node {
  name: "MobilenetV2/expanded_conv_16/project/BatchNorm/FusedBatchNorm"
  op: "BiasAdd"
  input: "MobilenetV2/expanded_conv_16/project/Conv2D"
  input: "MobilenetV2/expanded_conv_16/project/Conv2D_bn_offset"
  attr {
    key: "T"
    value {
      type: DT_FLOAT
    }
  }
  attr {
    key: "data_format"
    value {
      s: "NHWC"
    }
  }
}
node {
  name: "MobilenetV2/Conv_1/Conv2D"
  op: "Conv2D"
  input: "MobilenetV2/expanded_conv_16/project/BatchNorm/FusedBatchNorm"
  input: "MobilenetV2/Conv_1/weights"
  attr {
    key: "T"
    value {
      type: DT_FLOAT
    }
  }
  attr {
    key: "data_format"
    value {
      s: "NHWC"
    }
  }
  attr {
    key: "dilations"
    value {
      list {
        i: 1
        i: 1
        i: 1
        i: 1
      }
    }
  }
  attr {
    key: "padding"
    value {
      s: "SAME"
    }
  }
  attr {
    key: "strides"
    value {
      list {
        i: 1
        i: 1
        i: 1
        i: 1
      }
    }
  }
  attr {
    key: "use_cudnn_on_gpu"
    value {
      b: true
    }
  }
}
node {
  name: "MobilenetV2/Conv_1/Conv2D_bn_offset"
  op: "Const"
  attr {
    key: "dtype"
    value {
      type: DT_FLOAT
    }
  }
  attr {
    key: "value"
    value {
      tensor {
        dtype: DT_FLOAT
        tensor_shape {
          dim {
            size: 64
          }
        }
        tensor_content: "…"
      }
    }
  }
}
node {
  name: "MobilenetV2/Conv_1/BatchNorm/FusedBatchNorm"
  op: "BiasAdd"
  input: "MobilenetV2/Conv_1/Conv2D"
  input: "MobilenetV2/Conv_1/Conv2D_bn_offset"
  attr {
    key: "T"
    value {
      type: DT_FLOAT
    }
  }
  attr {
    key: "data_format"
    value {
      s: "NHWC"
    }
  }
}
node {
  name: "MobilenetV2/Conv_2/weights"
  op: "Const"
  attr {
    key: "dtype"
    value {
      type: DT_FLOAT
    }
  }
  attr {
    key: "value"
    value {
      tensor {
        dtype: DT_FLOAT
        tensor_shape {
          dim {
            size: 3
          }
          dim {
            size: 3
          }
          dim {
            size: 64
          }
          dim {
            size: 32
          }
        }
        tensor_content: "…"
      }
    }
  }
}
node {
  name: "MobilenetV2/Conv_1/Relu6"
  op: "Relu6"
  input: "MobilenetV2/Conv_1/BatchNorm/FusedBatchNorm"
  attr {
    key: "T"
    value {
      type: DT_FLOAT
    }
  }
}
node {
  name: "MobilenetV2/Conv_2/Conv2D"
  op: "Conv2D"
  input: "MobilenetV2/Conv_1/Relu6"
  input: "MobilenetV2/Conv_2/weights"
  attr {
    key: "T"
    value {
      type: DT_FLOAT
    }
  }
  attr {
    key: "data_format"
    value {
      s: "NHWC"
    }
  }
  attr {
    key: "dilations"
    value {
      list {
        i: 1
        i: 1
        i: 1
        i: 1
      }
    }
  }
  attr {
    key: "padding"
    value {
      s: "SAME"
    }
  }
  attr {
    key: "strides"
    value {
      list {
        i: 1
        i: 1
        i: 1
        i: 1
      }
    }
  }
  attr {
    key: "use_cudnn_on_gpu"
    value {
      b: true
    }
  }
}
node {
  name: "MobilenetV2/Conv_2/Conv2D_bn_offset"
  op: "Const"
  attr {
    key: "dtype"
    value {
      type: DT_FLOAT
    }
  }
  attr {
    key: "value"
    value {
      tensor {
        dtype: DT_FLOAT
        tensor_shape {
          dim {
            size: 32
          }
        }
        tensor_content: "…"
      }
    }
  }
}
node {
  name: "MobilenetV2/Conv_2/BatchNorm/FusedBatchNorm"
  op: "BiasAdd"
  input: "MobilenetV2/Conv_2/Conv2D"
  input: "MobilenetV2/Conv_2/Conv2D_bn_offset"
  attr {
    key: "T"
    value {
      type: DT_FLOAT
    }
  }
  attr {
    key: "data_format"
    value {
      s: "NHWC"
    }
  }
}
node {
  name: "MobilenetV2/Conv_3/weights"
  op: "Const"
  attr {
    key: "dtype"
    value {
      type: DT_FLOAT
    }
  }
  attr {
    key: "value"
    value {
      tensor {
        dtype: DT_FLOAT
        tensor_shape {
          dim {
            size: 3
          }
          dim {
            size: 3
          }
          dim {
            size: 32
          }
          dim {
            size: 8
          }
        }
        tensor_content: "…"
      }
    }
  }
}
node {
  name: "MobilenetV2/Conv_2/Relu6"
  op: "Relu6"
  input: "MobilenetV2/Conv_2/BatchNorm/FusedBatchNorm"
  attr {
    key: "T"
    value {
      type: DT_FLOAT
    }
  }
}
node {
  name: "MobilenetV2/Conv_3/Conv2D"
  op: "Conv2D"
  input: "MobilenetV2/Conv_2/Relu6"
  input: "MobilenetV2/Conv_3/weights"
  attr {
    key: "T"
    value {
      type: DT_FLOAT
    }
  }
  attr {
    key: "data_format"
    value {
      s: "NHWC"
    }
  }
  attr {
    key: "dilations"
    value {
      list {
        i: 1
        i: 1
        i: 1
        i: 1
      }
    }
  }
  attr {
    key: "padding"
    value {
      s: "SAME"
    }
  }
  attr {
    key: "strides"
    value {
      list {
        i: 1
        i: 1
        i: 1
        i: 1
      }
    }
  }
  attr {
    key: "use_cudnn_on_gpu"
    value {
      b: true
    }
  }
}
node {
  name: "MobilenetV2/Conv_3/Conv2D_bn_offset"
  op: "Const"
  attr {
    key: "dtype"
    value {
      type: DT_FLOAT
    }
  }
  attr {
    key: "value"
    value {
      tensor {
        dtype: DT_FLOAT
        tensor_shape {
          dim {
            size: 8
          }
        }
        tensor_content: "\276\373\030>\200M\206?(\305L?\213xJ\277L\020\231\276\234\303\243?\"3Q\275\227\323\276>"
      }
    }
  }
}
node {
  name: "MobilenetV2/Conv_3/BatchNorm/FusedBatchNorm"
  op: "BiasAdd"
  input: "MobilenetV2/Conv_3/Conv2D"
  input: "MobilenetV2/Conv_3/Conv2D_bn_offset"
  attr {
    key: "T"
    value {
      type: DT_FLOAT
    }
  }
  attr {
    key: "data_format"
    value {
      s: "NHWC"
    }
  }
}
node {
  name: "MobilenetV2/Conv_3/Relu6"
  op: "Relu6"
  input: "MobilenetV2/Conv_3/BatchNorm/FusedBatchNorm"
  attr {
    key: "T"
    value {
      type: DT_FLOAT
    }
  }
}
node {
  name: "MobilenetV2/Decoder/ResizeBilinear"
  op: "ResizeBilinear"
  input: "MobilenetV2/Conv_3/Relu6"
  input: "MobilenetV2/Decoder/ResizeBilinear/size"
  attr {
    key: "T"
    value {
      type: DT_FLOAT
    }
  }
  attr {
    key: "align_corners"
    value {
      b: false
    }
  }
}
node {
  name: "MobilenetV2/Decoder/skip_1_32x32_output/weights"
  op: "Const"
  attr {
    key: "dtype"
    value {
      type: DT_FLOAT
    }
  }
  attr {
    key: "value"
    value {
      tensor {
        dtype: DT_FLOAT
        tensor_shape {
          dim {
            size: 3
          }
          dim {
            size: 3
          }
          dim {
            size: 16
          }
          dim {
            size: 8
          }
        }
        tensor_content: "…"
      }
    }
  }
}
node {
  name: "MobilenetV2/Decoder/concat"
  op: "ConcatV2"
  input: "MobilenetV2/Decoder/skip_1_32x32_bridge/BatchNorm/FusedBatchNorm"
  input: "MobilenetV2/Decoder/ResizeBilinear"
  input: "MobilenetV2/Decoder/concat/axis"
  attr {
    key: "N"
    value {
      i: 2
    }
  }
  attr {
    key: "T"
    value {
      type: DT_FLOAT
    }
  }
  attr {
    key: "Tidx"
    value {
      type: DT_INT32
    }
  }
}
node {
  name: "MobilenetV2/Decoder/skip_1_32x32_output/Conv2D"
  op: "Conv2D"
  input: "MobilenetV2/Decoder/concat"
  input: "MobilenetV2/Decoder/skip_1_32x32_output/weights"
  attr {
    key: "T"
    value {
      type: DT_FLOAT
    }
  }
  attr {
    key: "data_format"
    value {
      s: "NHWC"
    }
  }
  attr {
    key: "dilations"
    value {
      list {
        i: 1
        i: 1
        i: 1
        i: 1
      }
    }
  }
  attr {
    key: "padding"
    value {
      s: "SAME"
    }
  }
  attr {
    key: "strides"
    value {
      list {
        i: 1
        i: 1
        i: 1
        i: 1
      }
    }
  }
  attr {
    key: "use_cudnn_on_gpu"
    value {
      b: true
    }
  }
}
node {
  name: "MobilenetV2/Decoder/skip_1_32x32_output/Conv2D_bn_offset"
  op: "Const"
  attr {
    key: "dtype"
    value {
      type: DT_FLOAT
    }
  }
  attr {
    key: "value"
    value {
      tensor {
        dtype: DT_FLOAT
        tensor_shape {
          dim {
            size: 8
          }
        }
        tensor_content: "\346\213\220>rBC?b\345r\276\2045\265>\036\345|\275\016\252\246>\250\030\r?\353\251\220\277"
      }
    }
  }
}
node {
  name: "MobilenetV2/Decoder/skip_1_32x32_output/BatchNorm/FusedBatchNorm"
  op: "BiasAdd"
  input: "MobilenetV2/Decoder/skip_1_32x32_output/Conv2D"
  input: "MobilenetV2/Decoder/skip_1_32x32_output/Conv2D_bn_offset"
  attr {
    key: "T"
    value {
      type: DT_FLOAT
    }
  }
  attr {
    key: "data_format"
    value {
      s: "NHWC"
    }
  }
}
node {
  name: "MobilenetV2/Decoder/skip_1_32x32_output/Relu6"
  op: "Relu6"
  input: "MobilenetV2/Decoder/skip_1_32x32_output/BatchNorm/FusedBatchNorm"
  attr {
    key: "T"
    value {
      type: DT_FLOAT
    }
  }
}
node {
  name: "MobilenetV2/Decoder/ResizeBilinear_1"
  op: "ResizeBilinear"
  input: "MobilenetV2/Decoder/skip_1_32x32_output/Relu6"
  input: "MobilenetV2/Decoder/ResizeBilinear_1/size"
  attr {
    key: "T"
    value {
      type: DT_FLOAT
    }
  }
  attr {
    key: "align_corners"
    value {
      b: false
    }
  }
}
node {
  name: "MobilenetV2/Decoder/skip_2_64x64_output/weights"
  op: "Const"
  attr {
    key: "dtype"
    value {
      type: DT_FLOAT
    }
  }
  attr {
    key: "value"
    value {
      tensor {
        dtype: DT_FLOAT
        tensor_shape {
          dim {
            size: 3
          }
          dim {
            size: 3
          }
          dim {
            size: 16
          }
          dim {
            size: 8
          }
        }
        tensor_content: "…"
      }
    }
  }
}
node {
  name: "MobilenetV2/Decoder/concat_1"
  op: "ConcatV2"
  input: "MobilenetV2/Decoder/skip_2_64x64_bridge/BatchNorm/FusedBatchNorm"
  input: "MobilenetV2/Decoder/ResizeBilinear_1"
  input: "MobilenetV2/Decoder/concat_1/axis"
  attr {
    key: "N"
    value {
      i: 2
    }
  }
  attr {
    key: "T"
    value {
      type: DT_FLOAT
    }
  }
  attr {
    key: "Tidx"
    value {
      type: DT_INT32
    }
  }
}
node {
  name: "MobilenetV2/Decoder/skip_2_64x64_output/Conv2D"
  op: "Conv2D"
  input: "MobilenetV2/Decoder/concat_1"
  input: "MobilenetV2/Decoder/skip_2_64x64_output/weights"
  attr {
    key: "T"
    value {
      type: DT_FLOAT
    }
  }
  attr {
    key: "data_format"
    value {
      s: "NHWC"
    }
  }
  attr {
    key: "dilations"
    value {
      list {
        i: 1
        i: 1
        i: 1
        i: 1
      }
    }
  }
  attr {
    key: "padding"
    value {
      s: "SAME"
    }
  }
  attr {
    key: "strides"
    value {
      list {
        i: 1
        i: 1
        i: 1
        i: 1
      }
    }
  }
  attr {
    key: "use_cudnn_on_gpu"
    value {
      b: true
    }
  }
}
node {
  name: "MobilenetV2/Decoder/skip_2_64x64_output/Conv2D_bn_offset"
  op: "Const"
  attr {
    key: "dtype"
    value {
      type: DT_FLOAT
    }
  }
  attr {
    key: "value"
    value {
      tensor {
        dtype: DT_FLOAT
        tensor_shape {
          dim {
            size: 8
          }
        }
        tensor_content: "\375%\316\275;\200\216=1f\033>UE\235\276\343\352\211>\341\346p>\301\333D?\353u\353\276"
      }
    }
  }
}
node {
  name: "MobilenetV2/Decoder/skip_2_64x64_output/BatchNorm/FusedBatchNorm"
  op: "BiasAdd"
  input: "MobilenetV2/Decoder/skip_2_64x64_output/Conv2D"
  input: "MobilenetV2/Decoder/skip_2_64x64_output/Conv2D_bn_offset"
  attr {
    key: "T"
    value {
      type: DT_FLOAT
    }
  }
  attr {
    key: "data_format"
    value {
      s: "NHWC"
    }
  }
}
node {
  name: "MobilenetV2/Decoder/skip_2_64x64_output/Relu6"
  op: "Relu6"
  input: "MobilenetV2/Decoder/skip_2_64x64_output/BatchNorm/FusedBatchNorm"
  attr {
    key: "T"
    value {
      type: DT_FLOAT
    }
  }
}
node {
  name: "MobilenetV2/Decoder/ResizeBilinear_2"
  op: "ResizeBilinear"
  input: "MobilenetV2/Decoder/skip_2_64x64_output/Relu6"
  input: "MobilenetV2/Decoder/ResizeBilinear_2/size"
  attr {
    key: "T"
    value {
      type: DT_FLOAT
    }
  }
  attr {
    key: "align_corners"
    value {
      b: false
    }
  }
}
node {
  name: "MobilenetV2/Decoder/skip_3_128x128_output/weights"
  op: "Const"
  attr {
    key: "dtype"
    value {
      type: DT_FLOAT
    }
  }
  attr {
    key: "value"
    value {
      tensor {
        dtype: DT_FLOAT
        tensor_shape {
          dim {
            size: 3
          }
          dim {
            size: 3
          }
          dim {
            size: 16
          }
          dim {
            size: 8
          }
        }
        tensor_content: "…"
      }
    }
  }
}
node {
  name: "MobilenetV2/Decoder/concat_2"
  op: "ConcatV2"
  input: "MobilenetV2/Decoder/skip_3_128x128_bridge/BatchNorm/FusedBatchNorm"
  input: "MobilenetV2/Decoder/ResizeBilinear_2"
  input: "MobilenetV2/Decoder/concat_2/axis"
  attr {
    key: "N"
    value {
      i: 2
    }
  }
  attr {
    key: "T"
    value {
      type: DT_FLOAT
    }
  }
  attr {
    key: "Tidx"
    value {
      type: DT_INT32
    }
  }
}
node {
  name: "MobilenetV2/Decoder/skip_3_128x128_output/Conv2D"
  op: "Conv2D"
  input: "MobilenetV2/Decoder/concat_2"
  input: "MobilenetV2/Decoder/skip_3_128x128_output/weights"
  attr {
    key: "T"
    value {
      type: DT_FLOAT
    }
  }
  attr {
    key: "data_format"
    value {
      s: "NHWC"
    }
  }
  attr {
    key: "dilations"
    value {
      list {
        i: 1
        i: 1
        i: 1
        i: 1
      }
    }
  }
  attr {
    key: "padding"
    value {
      s: "SAME"
    }
  }
  attr {
    key: "strides"
    value {
      list {
        i: 1
        i: 1
        i: 1
        i: 1
      }
    }
  }
  attr {
    key: "use_cudnn_on_gpu"
    value {
      b: true
    }
  }
}
node {
  name: "MobilenetV2/Decoder/skip_3_128x128_output/Conv2D_bn_offset"
  op: "Const"
  attr {
    key: "dtype"
    value {
      type: DT_FLOAT
    }
  }
  attr {
    key: "value"
    value {
      tensor {
        dtype: DT_FLOAT
        tensor_shape {
          dim {
            size: 8
          }
        }
        tensor_content: "\340\347\032?\006@\262>X\306\023>l\317s=\211\300\243\276\032\302\002?\037,\000\277%\0044\276"
      }
    }
  }
}
node {
  name: "MobilenetV2/Decoder/skip_3_128x128_output/BatchNorm/FusedBatchNorm"
  op: "BiasAdd"
  input: "MobilenetV2/Decoder/skip_3_128x128_output/Conv2D"
  input: "MobilenetV2/Decoder/skip_3_128x128_output/Conv2D_bn_offset"
  attr {
    key: "T"
    value {
      type: DT_FLOAT
    }
  }
  attr {
    key: "data_format"
    value {
      s: "NHWC"
    }
  }
}
node {
  name: "MobilenetV2/Decoder/skip_3_128x128_output/Relu6"
  op: "Relu6"
  input: "MobilenetV2/Decoder/skip_3_128x128_output/BatchNorm/FusedBatchNorm"
  attr {
    key: "T"
    value {
      type: DT_FLOAT
    }
  }
}
node {
  name: "MobilenetV2/Decoder/ResizeBilinear_3"
  op: "ResizeBilinear"
  input: "MobilenetV2/Decoder/skip_3_128x128_output/Relu6"
  input: "MobilenetV2/Decoder/ResizeBilinear_3/size"
  attr {
    key: "T"
    value {
      type: DT_FLOAT
    }
  }
  attr {
    key: "align_corners"
    value {
      b: false
    }
  }
}
node {
  name: "MobilenetV2/Decoder/skip_4_256x256_output/weights"
  op: "Const"
  attr {
    key: "dtype"
    value {
      type: DT_FLOAT
    }
  }
  attr {
    key: "value"
    value {
      tensor {
        dtype: DT_FLOAT
        tensor_shape {
          dim {
            size: 3
          }
          dim {
            size: 3
          }
          dim {
            size: 16
          }
          dim {
            size: 2
          }
        }
        tensor_content: "…"
      }
    }
  }
}
node {
  name: "MobilenetV2/Decoder/concat_3"
  op: "ConcatV2"
  input: "MobilenetV2/Decoder/skip_4_256x256_bridge/BatchNorm/FusedBatchNorm"
  input: "MobilenetV2/Decoder/ResizeBilinear_3"
  input: "MobilenetV2/Decoder/concat_3/axis"
  attr {
    key: "N"
    value {
      i: 2
    }
  }
  attr {
    key: "T"
    value {
      type: DT_FLOAT
    }
  }
  attr {
    key: "Tidx"
    value {
      type: DT_INT32
    }
  }
}
node {
  name: "MobilenetV2/Decoder/skip_4_256x256_output/Conv2D"
  op: "Conv2D"
  input: "MobilenetV2/Decoder/concat_3"
  input: "MobilenetV2/Decoder/skip_4_256x256_output/weights"
  attr {
    key: "T"
    value {
      type: DT_FLOAT
    }
  }
  attr {
    key: "data_format"
    value {
      s: "NHWC"
    }
  }
  attr {
    key: "dilations"
    value {
      list {
        i: 1
        i: 1
        i: 1
        i: 1
      }
    }
  }
  attr {
    key: "padding"
    value {
      s: "SAME"
    }
  }
  attr {
    key: "strides"
    value {
      list {
        i: 1
        i: 1
        i: 1
        i: 1
      }
    }
  }
  attr {
    key: "use_cudnn_on_gpu"
    value {
      b: true
    }
  }
}
node {
  name: "MobilenetV2/Decoder/skip_4_256x256_output/Conv2D_bn_offset"
  op: "Const"
  attr {
    key: "dtype"
    value {
      type: DT_FLOAT
    }
  }
  attr {
    key: "value"
    value {
      tensor {
        dtype: DT_FLOAT
        tensor_shape {
          dim {
            size: 2
          }
        }
        tensor_content: "=Z\267?\2375\254>"
      }
    }
  }
}
node {
  name: "MobilenetV2/Decoder/skip_4_256x256_output/BatchNorm/FusedBatchNorm"
  op: "BiasAdd"
  input: "MobilenetV2/Decoder/skip_4_256x256_output/Conv2D"
  input: "MobilenetV2/Decoder/skip_4_256x256_output/Conv2D_bn_offset"
  attr {
    key: "T"
    value {
      type: DT_FLOAT
    }
  }
  attr {
    key: "data_format"
    value {
      s: "NHWC"
    }
  }
}
node {
  name: "MobilenetV2/Decoder/skip_4_256x256_output/Relu6"
  op: "Relu6"
  input: "MobilenetV2/Decoder/skip_4_256x256_output/BatchNorm/FusedBatchNorm"
  attr {
    key: "T"
    value {
      type: DT_FLOAT
    }
  }
}
node {
  name: "MobilenetV2/Decoder/ResizeBilinear_4"
  op: "ResizeBilinear"
  input: "MobilenetV2/Decoder/skip_4_256x256_output/Relu6"
  input: "MobilenetV2/Decoder/ResizeBilinear_4/size"
  attr {
    key: "T"
    value {
      type: DT_FLOAT
    }
  }
  attr {
    key: "align_corners"
    value {
      b: false
    }
  }
}
node {
  name: "MobilenetV2/Decoder/skip_5_512x512_output/weights"
  op: "Const"
  attr {
    key: "dtype"
    value {
      type: DT_FLOAT
    }
  }
  attr {
    key: "value"
    value {
      tensor {
        dtype: DT_FLOAT
        tensor_shape {
          dim {
            size: 3
          }
          dim {
            size: 3
          }
          dim {
            size: 6
          }
          dim {
            size: 2
          }
        }
        tensor_content: "…"
      }
    }
  }
}
node {
  name: "MobilenetV2/Decoder/concat_4"
  op: "ConcatV2"
  input: "MobilenetV2/Decoder/skip_5_512x512_bridge/BatchNorm/FusedBatchNorm"
  input: "MobilenetV2/Decoder/ResizeBilinear_4"
  input: "MobilenetV2/Decoder/concat_4/axis"
  attr {
    key: "N"
    value {
      i: 2
    }
  }
  attr {
    key: "T"
    value {
      type: DT_FLOAT
    }
  }
  attr {
    key: "Tidx"
    value {
      type: DT_INT32
    }
  }
}
node {
  name: "MobilenetV2/Decoder/skip_5_512x512_output/Conv2D"
  op: "Conv2D"
  input: "MobilenetV2/Decoder/concat_4"
  input: "MobilenetV2/Decoder/skip_5_512x512_output/weights"
  attr {
    key: "T"
    value {
      type: DT_FLOAT
    }
  }
  attr {
    key: "data_format"
    value {
      s: "NHWC"
    }
  }
  attr {
    key: "dilations"
    value {
      list {
        i: 1
        i: 1
        i: 1
        i: 1
      }
    }
  }
  attr {
    key: "padding"
    value {
      s: "SAME"
    }
  }
  attr {
    key: "strides"
    value {
      list {
        i: 1
        i: 1
        i: 1
        i: 1
      }
    }
  }
  attr {
    key: "use_cudnn_on_gpu"
    value {
      b: true
    }
  }
}
node {
  name: "MobilenetV2/Decoder/skip_5_512x512_output/Conv2D_bn_offset"
  op: "Const"
  attr {
    key: "dtype"
    value {
      type: DT_FLOAT
    }
  }
  attr {
    key: "value"
    value {
      tensor {
        dtype: DT_FLOAT
        tensor_shape {
          dim {
            size: 2
          }
        }
        tensor_content: "Z_\036\277\n:\213@"
      }
    }
  }
}
node {
  name: "MobilenetV2/Decoder/skip_5_512x512_output/BatchNorm/FusedBatchNorm"
  op: "BiasAdd"
  input: "MobilenetV2/Decoder/skip_5_512x512_output/Conv2D"
  input: "MobilenetV2/Decoder/skip_5_512x512_output/Conv2D_bn_offset"
  attr {
    key: "T"
    value {
      type: DT_FLOAT
    }
  }
  attr {
    key: "data_format"
    value {
      s: "NHWC"
    }
  }
}
node {
  name: "MobilenetV2/Decoder/skip_5_512x512_output/Relu6"
  op: "Relu6"
  input: "MobilenetV2/Decoder/skip_5_512x512_output/BatchNorm/FusedBatchNorm"
  attr {
    key: "T"
    value {
      type: DT_FLOAT
    }
  }
}
node {
  name: "MobilenetV2/Logits/Conv2d_1c_1x1/Conv2D"
  op: "Conv2D"
  input: "MobilenetV2/Decoder/skip_5_512x512_output/Relu6"
  input: "MobilenetV2/Logits/Conv2d_1c_1x1/weights"
  attr {
    key: "T"
    value {
      type: DT_FLOAT
    }
  }
  attr {
    key: "data_format"
    value {
      s: "NHWC"
    }
  }
  attr {
    key: "dilations"
    value {
      list {
        i: 1
        i: 1
        i: 1
        i: 1
      }
    }
  }
  attr {
    key: "padding"
    value {
      s: "SAME"
    }
  }
  attr {
    key: "strides"
    value {
      list {
        i: 1
        i: 1
        i: 1
        i: 1
      }
    }
  }
  attr {
    key: "use_cudnn_on_gpu"
    value {
      b: true
    }
  }
}
node {
  name: "MobilenetV2/Logits/Conv2d_1c_1x1/BiasAdd"
  op: "BiasAdd"
  input: "MobilenetV2/Logits/Conv2d_1c_1x1/Conv2D"
  input: "MobilenetV2/Logits/Conv2d_1c_1x1/biases"
  attr {
    key: "T"
    value {
      type: DT_FLOAT
    }
  }
  attr {
    key: "data_format"
    value {
      s: "NHWC"
    }
  }
}
node {
  name: "MobilenetV2/Reshape"
  op: "Reshape"
  input: "MobilenetV2/Logits/Conv2d_1c_1x1/BiasAdd"
  input: "MobilenetV2/concat/_0__cf__0"
  attr {
    key: "T"
    value {
      type: DT_FLOAT
    }
  }
  attr {
    key: "Tshape"
    value {
      type: DT_INT32
    }
  }
}
node {
  name: "MobilenetV2/Softmax"
  op: "Softmax"
  input: "MobilenetV2/Reshape"
  attr {
    key: "T"
    value {
      type: DT_FLOAT
    }
  }
}
node {
  name: "MobilenetV2/Reshape_1"
  op: "Reshape"
  input: "MobilenetV2/Softmax"
  input: "MobilenetV2/Shape"
  attr {
    key: "T"
    value {
      type: DT_FLOAT
    }
  }
  attr {
    key: "Tshape"
    value {
      type: DT_INT32
    }
  }
}
node {
  name: "MobilenetV2/heatmap"
  op: "Identity"
  input: "MobilenetV2/Reshape_1"
  attr {
    key: "T"
    value {
      type: DT_FLOAT
    }
  }
}
node {
  name: "MobilenetV2/concat/_0__cf__0"
  op: "Const"
  attr {
    key: "dtype"
    value {
      type: DT_INT32
    }
  }
  attr {
    key: "value"
    value {
      tensor {
        dtype: DT_INT32
        tensor_shape {
          dim {
            size: 2
          }
        }
        tensor_content: "\377\377\377\377\002\000\000\000"
      }
    }
  }
}
library {
}
